retrieval_support/vae_pt_models/Flow/flow-state-dict.pt (torch, 458281 bytes, 162 tensors)

q0.loc f4 [1, 2]
00000000: 0000 0000 0000 0000
0.0 0.0

q0.log_scale f4 [1, 2]
00000000: 0000 0000 0000 0000
0.0 0.0

flows.0.mprqat.autoregressive_net.initial_layer.weight f4 [32, 2]
00000000: 8985 753e 8476 0600 8845 8f3e 4432 0600
00000010: 6932 353f 7544 0100 8bbd 803e c09e 0580
00000020: 3b1a a23d 031e 0580 166d 4cbf 705e 0080
00000030: 06ad 133f a44a 0980 2525 593e 8dc4 0300
00000040: 1926 b5be 1a5b 0280 b0d4 e1be 525c 0700
00000050: e842 d7be 96cc 0980 9304 d5be 7fa6 0700
00000060: e334 a23d 6a02 0180 ccf4 b9be 9c1d 0880
00000070: 7e90 b43e a962 0900 cb75 ca3e 797a 0480
00000080: 5a48 ddbe 6070 0700 6764 d83e e833 0080
00000090: 42ed 44be de2b 0780 ca15 93be aa07 0000
000000a0: e702 013f 6864 0100 641c d33c 28e5 0080
000000b0: 5687 e33e 614c 0280 808a 343f 46f8 0100
000000c0: 689b 133e 01d4 0180 f720 c4be e4af 0100
000000d0: 81cc 733e cafe 0000 f92e ef3d 1bf7 0680
000000e0: e3e2 a7be 65c6 0700 c0f1 e33e a143 0000
000000f0: fa4d d7be 81a1 0480 9d70 293f f034 0480
0.23976721 5.93528e-40 0.27982736 5.69045e-40 0.70780045 1.16393e-40 0.2514461 -5.16126e-40
0.07915159 -4.69944e-40 -0.7985395 -3.3878e-41 0.5768589 -8.53295e-40 0.21205576 3.46016e-40
-0.3538063 -2.16352e-40 -0.4410758 6.75967e-40 -0.42043233 -8.99911e-40 -0.41605052 7.02576e-40
0.079202436 -9.2701e-41 -0.36319578 -7.45306e-40 0.3526649 8.61912e-40 0.39542994 -4.11277e-40
-0.43219262 6.83161e-40 0.422641 -1.862e-41 -0.19231132 -6.58585e-40 -0.2872756 2.75e-42
0.50395054 1.27854e-40 0.025770374 -8.2206e-41 0.4443919 -2.1107e-40 0.70523834 1.80899e-40
0.14414752 -1.67888e-40 -0.383064 1.54933e-40 0.23808481 9.1401e-41 0.11678881 -6.39658e-40
-0.32790288 7.14019e-40 0.44520378 2.426e-41 -0.4205168 -4.25279e-40 0.6618746 -3.86332e-40

flows.0.mprqat.autoregressive_net.initial_layer.bias f4 [32]
00000000: 62ac f4bd de51 0cbe 022a 10bf 43d4 a33e
00000010: 21e2 10bf e05e b5bd c9bd da3e 766a 01bf
00000020: 70e3 e5be e123 e73e 05c7 07bf 145c db3e
00000030: eec0 0fbf a2b6 edbe fff1 db3e 0cad f93e
00000040: cf8b 8e3d 4fea a03e ada1 213f 33ab bbbe
00000050: 8e66 34bd 2a50 c53e 1caa 853e 7793 393f
00000060: a661 0abf 4990 283e 34b0 303f 95f7 663d
00000070: 026f 003e a40a 0c3f 4ef3 09bf ba26 b4bd
-0.11946942 -0.13703105 -0.563141 0.3199788 -0.56595045 -0.088559866 0.4272292 -0.5055307
-0.44900084 0.4514456 -0.53038055 0.42843688 -0.5615376 -0.464284 0.42958066 0.48764837
0.0696026 0.31428763 0.6313732 -0.36654052 -0.044043116 0.38537723 0.26106346 0.7249064
-0.5405525 0.1646129 0.69018865 0.056388456 0.12542346 0.54703736 -0.5388688 -0.08796449

flows.0.mprqat.autoregressive_net.initial_layer.mask f4 [32, 2]
00000000: 0000 803f 0000 0000 0000 803f 0000 0000
00000010: 0000 803f 0000 0000 0000 803f 0000 0000
00000020: 0000 803f 0000 0000 0000 803f 0000 0000
00000030: 0000 803f 0000 0000 0000 803f 0000 0000
00000040: 0000 803f 0000 0000 0000 803f 0000 0000
00000050: 0000 803f 0000 0000 0000 803f 0000 0000
00000060: 0000 803f 0000 0000 0000 803f 0000 0000
00000070: 0000 803f 0000 0000 0000 803f 0000 0000
00000080: 0000 803f 0000 0000 0000 803f 0000 0000
00000090: 0000 803f 0000 0000 0000 803f 0000 0000
000000a0: 0000 803f 0000 0000 0000 803f 0000 0000
000000b0: 0000 803f 0000 0000 0000 803f 0000 0000
000000c0: 0000 803f 0000 0000 0000 803f 0000 0000
000000d0: 0000 803f 0000 0000 0000 803f 0000 0000
000000e0: 0000 803f 0000 0000 0000 803f 0000 0000
000000f0: 0000 803f 0000 0000 0000 803f 0000 0000
1.0 0.0 1.0 0.0 1.0 0.0 1.0 0.0
1.0 0.0 1.0 0.0 1.0 0.0 1.0 0.0
1.0 0.0 1.0 0.0 1.0 0.0 1.0 0.0
1.0 0.0 1.0 0.0 1.0 0.0 1.0 0.0
1.0 0.0 1.0 0.0 1.0 0.0 1.0 0.0
1.0 0.0 1.0 0.0 1.0 0.0 1.0 0.0
1.0 0.0 1.0 0.0 1.0 0.0 1.0 0.0
1.0 0.0 1.0 0.0 1.0 0.0 1.0 0.0

flows.0.mprqat.autoregressive_net.blocks.0.linear_layers.0.weight f4 [32, 32]
00000000: 2a13 0280 3823 0000 0599 0280 cbb6 6dbe
00000010: 27fd 0700 01ff 943c dc88 e5bd 8ba0 0480
00000020: 76d9 b2be 9691 783e 2ad3 91be 854b 5b3e
00000030: 02af 0480 f776 bdbe f207 16be 5537 6bbe
00000040: 569b 0ebd a493 85be cbe2 2a3e 13ec acbe
00000050: 1489 5eb3 102c 073e d5cf 99be e5d2 55be
00000060: 9206 0200 406e 1b3c cf2d bbbd e67c bebe
00000070: 52cd 303d 6740 90be 34ed 65be 2496 84af
00000080: b991 9c3e cdc8 6c3e 5820 913e a6ed 84bc
00000090: b351 0880 6a41 0100 608d e93d 6483 b3b8
000000a0: fb15 0a00 6a72 49bf 540c 0600 fc36 64bf
000000b0: 0836 0780 a102 0580 2f7c 893d 6a5c 803c
000000c0: 3f08 0280 e9b8 083d 5c9d 74be 53b7 0180
000000d0: f9cc 063e 548e 6abd 09ed 823d 9371 193d
000000e0: d5e8 0200 30ac 0000 686a 49bc dcd1 a93d
000000f0: 748a 0280 ec9a 8e3b c5e3 0980 3116 fa3d
00000100: 5464 26be 32f7 11be 8003 d1bd 6bb4 5b3e
00000110: 13b2 0900 46ed 45be 50ce 9c3d 810a 9a3d
00000120: c40c 0800 6a64 ce3b b76a 0480 e6db 23be
00000130: 5af6 0100 ff0d 0800 7194 8f3d 3446 f23d
00000140: 5d16 0abe 53ed 6ebd e050 663e 743a 0800
00000150: 7acf e4bc 33b2 31bd 75b6 31bd 3f23 dc3d
00000160: ff9c 0280 5796 2dbe d720 10bd e736 b5bc
00000170: cace c13d 1b55 873d 4fcb 0280 3aaf e03c
00000180: 2934 fcbd 5b9c 8cbe 3b88 6fbe 2c85 463e
00000190: 8c38 0380 21e5 b4be 4950 3b3e 7207 3ebc
000001a0: 77b0 0300 dcc6 903c ab4a 0300 71fd b83d
000001b0: e332 0900 a090 0500 55de 173c 14bb 1b3e
000001c0: 9313 e5bd 3f59 c53d 257d 953c 5cec 0800
000001d0: a41f 33be 6bb9 b43d 453d 0bbe fdb1 1b3e
000001e0: e22a 0400 46b9 22be b9d7 c3bc 278c cbbd
000001f0: 55ad a2bb 2a0a 573e 240d 0280 6238 66be
00000200: c996 cf9e 050c c4a4 0a5e e3b3 36bc 92b2
00000210: b013 0900 e0a8 b1b2 1e36 66b7 f985 0300
00000220: 0356 0080 21a8 fcb0 86db 0380 2de6 54b0
00000230: d1ff 0980 ff76 0080 fd30 80b5 763c 0fb6
00000240: 659d 59ad 64de 79b5 314e 93b2 573c 0500
00000250: ac68 54b4 c335 9faf 0e9b 7bb5 a8cb 8bb8
00000260: 4a89 0380 4368 43ad c64b 73b6 5c67 36a0
00000270: 88f5 dcaa e5df beb6 5529 0880 77c6 0ab6
00000280: 4dce cda9 5df9 41ad f54f 21b5 e809 9bb8
00000290: b1cf 0680 565f e4b7 9e9b ebb9 b5da 0780
000002a0: ae8e 0200 e571 94b9 a1ba 0300 a454 71b9
000002b0: b9a0 0000 a8e0 0600 ed70 8cb9 595a ccb9
000002c0: 5d48 1eb6 74c4 2db9 9552 27ba 7b13 0780
000002d0: 0da3 16b7 6228 d8b8 a40a 07b9 6cb7 94ba
000002e0: 8e80 0500 6055 1bb7 0a13 5cba 81c1 4daf
000002f0: 371f 15b6 1d22 0dba 5d73 0200 6f32 03b8
00000300: 8665 0680 a4c4 0000 5df3 d599 982f 31a6
00000310: 11ee 0080 7dc5 0480 51b1 33b0 2713 0100
00000320: 94c4 0480 c5f5 b090 05cc 0380 1aec 488d
00000330: c49d 0880 c7ea 0300 a920 f4ac 1530 4fae
00000340: 9f67 0500 d4a7 a4ab 8537 0ea7 0aea 0100
00000350: 4eaf 40a4 4313 e59f 3afd efaa 6220 c3b3
00000360: 6233 0180 112a 0600 e7b3 8aaf d70b 0680
00000370: cc4d 0100 5c3d e1af e8ec 0500 0ee1 28a9
00000380: 4938 913e 1abe 5d3e 0e1d 983e 70f3 cf3d
00000390: 0097 0880 69ff 0080 d37d b6bd 4d45 0c3e
000003a0: 3726 0980 5299 31bf 0f05 0b00 b432 5dbf
000003b0: 68ba 0780 f5a3 0580 a696 bcbd f68f 263c
000003c0: 003d 0780 a680 34ba 06a2 75be c73f 0880
000003d0: 1992 943e 0fe2 ddba 6fb0 283e 4bf2 6fbd
000003e0: 9cb7 0580 0321 0200 de21 d73d 6dba 203e
000003f0: e577 0980 0f7c ae3a 1067 0a80 e1f5 693e
-1.90546e-40 1.2634e-41 -2.38564e-40 -0.23214261 7.33662e-40 0.018188002 -0.112077445 -4.24934e-40
-0.34931535 0.24274287 -0.28481418 0.21415527 -4.30123e-40 -0.37004825 -0.14651468 -0.22970326
-0.03481611 -0.26089203 0.16688077 -0.3377386 -5.1813075e-08 0.13200402 -0.30041376 -0.20881231
1.86028e-40 0.009486735 -0.09139597 -0.37204665 0.04316456 -0.28174135 -0.22453767 -2.4117341e-10
0.30579928 0.23123474 0.2834499 -0.0162266 -7.63992e-40 1.15302e-40 0.11403918 -8.5598585e-05
9.2624e-40 -0.78690207 5.55435e-40 -0.891464 -6.62231e-40 -4.6012e-40 0.06713139 0.015669066
-1.86629e-40 0.03337947 -0.23888153 -1.576e-40 0.13164128 -0.05726464 0.06392867 0.03746183
2.67195e-40 6.1769e-41 -0.012293436 0.082919806 -2.33339e-40 0.004351964 -9.08228e-40 0.12211264
-0.1624921 -0.14254454 -0.10205746 0.21455543 8.904e-40 -0.19328794 0.076565385 0.07521535
7.39263e-40 0.0062985914 -4.05624e-40 -0.16001853 1.8021e-40 7.39705e-40 0.07010735 0.118297964
-0.13485093 -0.0583318 0.22491789 7.55653e-40 -0.027930964 -0.043382835 -0.043386895 0.1074891
-2.3999e-40 -0.16951881 -0.03518757 -0.022120906 0.0946327 0.066080295 -2.56604e-40 0.027427305
-0.12314636 -0.2746304 -0.23391812 0.19386739 -2.95792e-40 -0.3533106 0.18292345 -0.011598455
3.3881e-40 0.017672949 3.02292e-40 0.09032715 8.44774e-40 5.11059e-40 0.009269317 0.15208083
-0.11185374 0.09636163 0.01824815 8.19474e-40 -0.17492539 0.08824428 -0.13597591 0.15204616
3.82725e-40 -0.15890989 -0.023906576 -0.09938841 -0.0049645104 0.20999971 -1.88385e-40 -0.22482446
-2.197934e-20 -8.502181e-17 -1.0587617e-07 -1.7082225e-08 8.33582e-40 -2.0682307e-08 -1.3721668e-05 3.23567e-40
-3.0855e-41 -1.8383198e-09 -3.54257e-40 -7.745225e-10 -9.18289e-40 -4.2688e-41 -9.551001e-07 -2.1343853e-06
-1.23699705e-11 -9.308335e-07 -1.714861e-08 4.80823e-40 -1.9782118e-07 -2.8960132e-10 -9.373042e-07 -6.6659704e-05
-3.24757e-40 -1.1107617e-11 -3.6253928e-06 -1.5450198e-19 -3.9250222e-13 -5.688506e-06 -7.49511e-40 -2.0679124e-06
-9.139616e-14 -1.102615e-11 -6.0093527e-07 -7.392821e-05 -6.25519e-40 -2.7224112e-05 -0.00044938637 -7.21306e-40
2.34855e-40 -0.00028313618 3.42456e-40 -0.00023015082 5.7656e-41 6.31604e-40 -0.00026787017 -0.00038977226
-2.3585956e-06 -0.0001657175 -0.000638285 -6.49837e-40 -8.97866e-06 -0.000103072045 -0.00012878567 -0.0011346168
5.05294e-40 -9.258598e-06 -0.0008395171 -1.8713388e-10 -2.22209e-06 -0.00053838064 2.25056e-40 -3.1279804e-05
-5.87433e-40 7.0541e-41 -2.2121977e-23 -6.147371e-16 -8.5402e-41 -4.38187e-40 -6.53718e-10 9.8706e-41
-4.37861e-40 -6.979843e-29 -3.48695e-40 -6.1913955e-31 -7.9128e-40 3.59729e-40 -6.938523e-12 -4.7109056e-11
4.9635e-40 -1.1699483e-12 -1.9736556e-15 1.75793e-40 -4.1781852e-17 -9.701714e-20 -4.263064e-13 -9.0862855e-08
-1.10268e-40 5.66104e-40 -2.5229882e-10 -5.5526e-40 1.19744e-40 -4.097086e-10 5.44163e-40 -3.7498697e-14
0.28363255 0.21654549 0.29709667 0.10153854 -7.88853e-40 -9.1624e-41 -0.08910718 0.13698311
-8.40228e-40 -0.69374573 1.012005e-39 -0.8640549 -7.09718e-40 -5.17994e-40 -0.092084214 0.010166159
-6.64731e-40 -0.0006885625 -0.23987588 -7.57563e-40 0.29017714 -0.0016928333 0.16473554 -0.058580678
-5.25044e-40 1.95513e-40 0.105045065 0.15696116 -8.6953e-40 0.0013312119 -9.55327e-40 0.22847702

flows.0.mprqat.autoregressive_net.blocks.0.linear_layers.0.bias f4 [32]
00000000: f232 c13d 872d 7fbd 787c 973d 4ee1 9a3d
00000010: 5fd7 2bb7 04ee e3ba b881 55b1 a2e2 a43b
00000020: 83b9 09b9 eaf7 6eb4 7a4c 0f3e e4f8 a73c
00000030: 6a5f 9a3d 068c b53b ef94 7a3d ee7d ce3d
00000040: 1ed1 913d b9ad b6bd 83be 313d 0151 22bc
00000050: 3523 873c d001 833d 1986 463e 6d8b 69bc
00000060: bf2e b0a0 cddc bfb1 93e4 9bbd 197b e63d
00000070: 1c9f 653d 26bc f9ba 28fe 16bc dc30 d8bd
0.09433545 -0.062299278 0.073967874 0.07562505 -1.0242539e-05 -0.001738966 -3.1069316e-09 0.0050318995
-0.00013134447 -2.2255668e-07 0.13994017 0.020504422 0.0753773 0.0055403737 0.06117719 0.10082613
0.07119964 -0.08919854 0.043394577 -0.009907008 0.01649628 0.0639683 0.19387092 -0.014254433
-2.9846494e-19 -5.5839338e-09 -0.076119564 0.11253948 0.05605994 -0.0019053265 -0.009215869 -0.10556194

flows.0.mprqat.autoregressive_net.blocks.0.linear_layers.0.mask f4 [32, 32]
00000000: 0000 803f 0000 803f 0000 803f 0000 803f
00000010: 0000 803f 0000 803f 0000 803f 0000 803f
00000020: 0000 803f 0000 803f 0000 803f 0000 803f
00000030: 0000 803f 0000 803f 0000 803f 0000 803f
00000040: 0000 803f 0000 803f 0000 803f 0000 803f
00000050: 0000 803f 0000 803f 0000 803f 0000 803f
00000060: 0000 803f 0000 803f 0000 803f 0000 803f
00000070: 0000 803f 0000 803f 0000 803f 0000 803f
00000080: 0000 803f 0000 803f 0000 803f 0000 803f
00000090: 0000 803f 0000 803f 0000 803f 0000 803f
000000a0: 0000 803f 0000 803f 0000 803f 0000 803f
000000b0: 0000 803f 0000 803f 0000 803f 0000 803f
000000c0: 0000 803f 0000 803f 0000 803f 0000 803f
000000d0: 0000 803f 0000 803f 0000 803f 0000 803f
000000e0: 0000 803f 0000 803f 0000 803f 0000 803f
000000f0: 0000 803f 0000 803f 0000 803f 0000 803f
00000100: 0000 803f 0000 803f 0000 803f 0000 803f
00000110: 0000 803f 0000 803f 0000 803f 0000 803f
00000120: 0000 803f 0000 803f 0000 803f 0000 803f
00000130: 0000 803f 0000 803f 0000 803f 0000 803f
00000140: 0000 803f 0000 803f 0000 803f 0000 803f
00000150: 0000 803f 0000 803f 0000 803f 0000 803f
00000160: 0000 803f 0000 803f 0000 803f 0000 803f
00000170: 0000 803f 0000 803f 0000 803f 0000 803f
00000180: 0000 803f 0000 803f 0000 803f 0000 803f
00000190: 0000 803f 0000 803f 0000 803f 0000 803f
000001a0: 0000 803f 0000 803f 0000 803f 0000 803f
000001b0: 0000 803f 0000 803f 0000 803f 0000 803f
000001c0: 0000 803f 0000 803f 0000 803f 0000 803f
000001d0: 0000 803f 0000 803f 0000 803f 0000 803f
000001e0: 0000 803f 0000 803f 0000 803f 0000 803f
000001f0: 0000 803f 0000 803f 0000 803f 0000 803f
00000200: 0000 803f 0000 803f 0000 803f 0000 803f
00000210: 0000 803f 0000 803f 0000 803f 0000 803f
00000220: 0000 803f 0000 803f 0000 803f 0000 803f
00000230: 0000 803f 0000 803f 0000 803f 0000 803f
00000240: 0000 803f 0000 803f 0000 803f 0000 803f
00000250: 0000 803f 0000 803f 0000 803f 0000 803f
00000260: 0000 803f 0000 803f 0000 803f 0000 803f
00000270: 0000 803f 0000 803f 0000 803f 0000 803f
00000280: 0000 803f 0000 803f 0000 803f 0000 803f
00000290: 0000 803f 0000 803f 0000 803f 0000 803f
000002a0: 0000 803f 0000 803f 0000 803f 0000 803f
000002b0: 0000 803f 0000 803f 0000 803f 0000 803f
000002c0: 0000 803f 0000 803f 0000 803f 0000 803f
000002d0: 0000 803f 0000 803f 0000 803f 0000 803f
000002e0: 0000 803f 0000 803f 0000 803f 0000 803f
000002f0: 0000 803f 0000 803f 0000 803f 0000 803f
00000300: 0000 803f 0000 803f 0000 803f 0000 803f
00000310: 0000 803f 0000 803f 0000 803f 0000 803f
00000320: 0000 803f 0000 803f 0000 803f 0000 803f
00000330: 0000 803f 0000 803f 0000 803f 0000 803f
00000340: 0000 803f 0000 803f 0000 803f 0000 803f
00000350: 0000 803f 0000 803f 0000 803f 0000 803f
00000360: 0000 803f 0000 803f 0000 803f 0000 803f
00000370: 0000 803f 0000 803f 0000 803f 0000 803f
00000380: 0000 803f 0000 803f 0000 803f 0000 803f
00000390: 0000 803f 0000 803f 0000 803f 0000 803f
000003a0: 0000 803f 0000 803f 0000 803f 0000 803f
000003b0: 0000 803f 0000 803f 0000 803f 0000 803f
000003c0: 0000 803f 0000 803f 0000 803f 0000 803f
000003d0: 0000 803f 0000 803f 0000 803f 0000 803f
000003e0: 0000 803f 0000 803f 0000 803f 0000 803f
000003f0: 0000 803f 0000 803f 0000 803f 0000 803f
1.0 1.0 1.0 1.0 1.0 1.0 1.0 1.0
1.0 1.0 1.0 1.0 1.0 1.0 1.0 1.0
1.0 1.0 1.0 1.0 1.0 1.0 1.0 1.0
1.0 1.0 1.0 1.0 1.0 1.0 1.0 1.0
1.0 1.0 1.0 1.0 1.0 1.0 1.0 1.0
1.0 1.0 1.0 1.0 1.0 1.0 1.0 1.0
1.0 1.0 1.0 1.0 1.0 1.0 1.0 1.0
1.0 1.0 1.0 1.0 1.0 1.0 1.0 1.0
1.0 1.0 1.0 1.0 1.0 1.0 1.0 1.0
1.0 1.0 1.0 1.0 1.0 1.0 1.0 1.0
1.0 1.0 1.0 1.0 1.0 1.0 1.0 1.0
1.0 1.0 1.0 1.0 1.0 1.0 1.0 1.0
1.0 1.0 1.0 1.0 1.0 1.0 1.0 1.0
1.0 1.0 1.0 1.0 1.0 1.0 1.0 1.0
1.0 1.0 1.0 1.0 1.0 1.0 1.0 1.0
1.0 1.0 1.0 1.0 1.0 1.0 1.0 1.0
1.0 1.0 1.0 1.0 1.0 1.0 1.0 1.0
1.0 1.0 1.0 1.0 1.0 1.0 1.0 1.0
1.0 1.0 1.0 1.0 1.0 1.0 1.0 1.0
1.0 1.0 1.0 1.0 1.0 1.0 1.0 1.0
1.0 1.0 1.0 1.0 1.0 1.0 1.0 1.0
1.0 1.0 1.0 1.0 1.0 1.0 1.0 1.0
1.0 1.0 1.0 1.0 1.0 1.0 1.0 1.0
1.0 1.0 1.0 1.0 1.0 1.0 1.0 1.0
1.0 1.0 1.0 1.0 1.0 1.0 1.0 1.0
1.0 1.0 1.0 1.0 1.0 1.0 1.0 1.0
1.0 1.0 1.0 1.0 1.0 1.0 1.0 1.0
1.0 1.0 1.0 1.0 1.0 1.0 1.0 1.0
1.0 1.0 1.0 1.0 1.0 1.0 1.0 1.0
1.0 1.0 1.0 1.0 1.0 1.0 1.0 1.0
1.0 1.0 1.0 1.0 1.0 1.0 1.0 1.0
1.0 1.0 1.0 1.0 1.0 1.0 1.0 1.0

flows.0.mprqat.autoregressive_net.blocks.0.linear_layers.1.weight f4 [32, 32]
00000000: b0c8 42be ed95 30be 6f65 ea3d 9633 153e
00000010: 068c 3e37 834c e1ba 4478 92af 2159 3dbe
00000020: 0e8e 1738 f3a3 a5a5 7715 1e3e a89a dcbb
00000030: 39d9 853d e1bc 8dbe 26ce 32be 26cb e3bd
00000040: 6388 09be d539 ab3d 6fb3 2dbe c06b 95b9
00000050: 960d bc3d 5536 063e 40bc d93d c1ad a43d
00000060: 785d 0700 eef8 a32c 870a 3cbe 7724 27be
00000070: aa13 d83d dd11 513d 6d1f 023a e65c 803d
00000080: 1b13 8bbe 17d5 03bd eb98 c63d 1ffa 093e
00000090: db7c 4935 7b64 88ba bbd9 95ac d956 27bd
000000a0: e35f a135 7794 71a2 f41a cf3d 439e ecbc
000000b0: e2bd 743d 67c4 9abe 21fa 8bbe e4ba 9dbd
000000c0: 55c8 f3bd a9a6 8e3d c733 7dbe 6cc1 bd3a
000000d0: 4796 a03d e37b 013e 3138 d53d ca4f 833d
000000e0: 5c9e 0480 148f 9a27 32d6 0ebd 088a 6cbe
000000f0: 3ad7 d33d 7f53 283d a958 d1bb 285e 553d
00000100: c388 e33b 8731 8e3e f90a e9bb a47f 87bd
00000110: 5ff1 35aa a1e8 b8b8 0f2b dcb0 c080 7f3e
00000120: abfb 03b0 12d2 9127 4997 393b fa4e cf3d
00000130: c62b 933c d847 603d 1478 863c c723 84bd
00000140: 3642 f9bc e789 283c b479 d93b 4e78 993a
00000150: 6c8b f83a 84a4 a5bd acd2 f2bc 18e8 c73b
00000160: 5376 0500 54cc 0423 8286 813e 8d9c 253c
00000170: 91e2 0abd 49f1 663c a108 c43a e92f fd3c
00000180: 61a7 4bbd 09e4 50be bb76 1c3d 7c2a 723d
00000190: 8692 4cb1 9743 41b7 64c2 bb21 4182 60be
000001a0: 10eb 922b 2a72 9fa1 d8ae 11bc 27a1 2abd
000001b0: e7d9 2b3c 602a 4abc d370 ecbb f37e 7a3d
000001c0: ab87 443d c17d 153d 1878 e3bc 60ce 413a
000001d0: 9a18 2b3d 92fa 5a3d 3b7a 3f3d 27a8 093d
000001e0: 5136 0300 9252 3a99 5a70 6cbe 615b 3bbd
000001f0: 952c 383d 2921 d23c 62b2 043c 9eae c93c
00000200: 9d9c 3b3c 0d42 043e 6750 aabc 07a4 6dbd
00000210: c637 2b31 3e68 19ba be3e 3a8d b9b5 133e
00000220: 1226 afaf 17ff 9d15 09c3 363c faf7 823d
00000230: 118a d63a 1dca 4bbb 341a 65bc ca0d e2bc
00000240: 50bb b1bc 8774 92bc d2b8 3fbc d61c b2b8
00000250: b100 b2bc 3464 98bd 4eb8 28bd 9908 8ebc
00000260: a84e 0200 291d 3c01 09ee 1e3e 5562 563c
00000270: ad8f 3abd a602 a0bc 3f3b 503b 30ad debb
00000280: 1f2a b63d a524 fcbd cef8 49bd 0c74 c3bc
00000290: 32df 7cb2 c12f 47b9 0dfa 65a6 b370 9cbd
000002a0: 11ee 1339 08fc 87ac 4618 c1bd f66e 07bd
000002b0: 7a42 92bd 7030 743d 1dfa 9b3d 1b33 253d
000002c0: cc1f ef3c ac9d 52bd f8b8 a33d a385 a63a
000002d0: 7825 57bd 2d4b 54bb 4355 0ebd 3955 53bd
000002e0: d548 0500 5b51 e827 ba2a a3bd c8df 903d
000002f0: 7c92 ecbc 97af 53bd 27d3 d0bb 392b 8cbd
00000300: 23e9 b5bd c4d7 4fbd a4ef 283d d258 353d
00000310: 10ec 3835 8702 b43a 35a2 6e2f 659c a8bd
00000320: ce09 3eb9 a1da 68ac f496 da3c 5746 c4bc
00000330: f929 1c3d c44a 5ebc 8ca8 a1bd 3e90 6a3d
00000340: 4b0b 2b3d 2083 283d 4c20 a2bd 37b4 b2ba
00000350: bd39 303d a799 083d e124 343d 64f3 233d
00000360: eeab 0600 9daa 47af 73e4 b8bd 86fc aabd
00000370: 7a07 213d d962 1f3d eb49 e53a 62c9 2c3d
00000380: c4b6 49bd bdfb 3ebd 9d41 48bb 9f67 0fbb
00000390: 739d 522d c50a 9537 0bba 0100 949a 16bd
000003a0: 124b 5faf 5074 2311 ec1a 443d 2573 843d
000003b0: 20cd a4bc 9804 9fbd 5a07 69bd ceeb c8bc
000003c0: 77e8 19bd 6714 92bc f79b 73bd 8067 7ab9
000003d0: a8ca 2abc bd03 79bc 3a72 77bc 298c 9abc
000003e0: 9ac3 0380 8520 0100 f342 bbbc 2196 07bd
000003f0: 915e 8ebc 2b50 2dbd e654 843b 5540 d2bc
-0.19021869 -0.17244692 0.11445128 0.1457046 1.1357484e-05 -0.001718894 -2.66427e-10 -0.18491031
3.6133504e-05 -2.8734034e-16 0.15437876 -0.0067323036 0.065355726 -0.27683166 -0.17461452 -0.11122732
-0.13430934 0.0836064 -0.1696298 -0.00028499775 0.09182279 0.13106664 0.10631609 0.080409534
6.76379e-40 4.6603754e-12 -0.18363391 -0.16322504 0.105506256 0.051042426 0.0004963789 0.06267719
-0.27163014 -0.03218564 0.096971355 0.1347432 7.5060024e-07 -0.0010405922 -4.2590076e-12 -0.04085431
1.2023341e-06 -3.2740187e-18 0.10112563 -0.028884059 0.0597514 -0.30227968 -0.2733927 -0.07701662
-0.11903445 0.06965382 -0.24726783 0.00144772 0.07841163 0.12644915 0.10411108 0.06411703
-4.2415e-40 4.289871e-15 -0.03487224 -0.2309953 0.103437856 0.041095253 -0.006388743 0.052091748
0.0069437935 0.2777216 -0.0071119037 -0.066161424 -1.6159772e-13 -8.817134e-05 -1.6019345e-09 0.24951458
-4.8015164e-10 4.0473343e-15 0.0028318933 0.101224855 0.017965209 0.054756016 0.01641468 -0.064521365
-0.03042708 0.010286785 0.0066368226 0.0011708827 0.0018962449 -0.080880195 -0.029641472 0.006100666
5.01624e-40 7.1990025e-18 0.25297934 0.010108125 -0.033907477 0.014095613 0.0014956185 0.030906634
-0.04972017 -0.20399489 0.038199168 0.059122548 -2.9769196e-09 -1.1519433e-05 1.2723068e-18 -0.21924688
1.0439167e-12 -1.0804478e-18 -0.008891784 -0.041657593 0.010488964 -0.012339205 -0.007215598 0.061156224
0.047980946 0.03649688 -0.027767226 0.0007393118 0.04177151 0.05346162 0.046747427 0.03360763
2.94992e-40 -9.6326496e-24 -0.23089734 -0.045741443 0.04496439 0.025650578 0.00809917 0.024619397
0.011450914 0.12915821 -0.020790292 -0.058017757 2.4915479e-09 -0.000585202 -5.73912e-31 0.1442479
-3.1859365e-10 6.3814256e-26 0.011154898 0.06394954 0.0016368051 -0.003109581 -0.013983298 -0.027594466
-0.021695763 -0.01787783 -0.011701779 -8.4930725e-05 -0.021728845 -0.07440987 -0.04119139 -0.017338084
2.11888e-40 3.4551068e-38 0.1552049 0.013084968 -0.045547176 -0.019532513 0.0031773595 -0.006795548
0.08894753 -0.12311677 -0.049309544 -0.023859046 -1.4719079e-08 -0.00018995909 -7.9789217e-16 -0.07638683
0.00014107699 -3.864912e-12 -0.09428458 -0.033064805 -0.07141586 0.059616506 0.07616065 0.04033194
0.029189967 -0.0514199 0.07994264 0.0012704622 -0.052525967 -0.003239344 -0.03474928 -0.051594947
4.85305e-40 6.448114e-15 -0.07967134 0.07073933 -0.028878443 -0.051681127 -0.0063728276 -0.068441816
-0.08882358 -0.05074288 0.041244164 0.04427416 6.888886e-07 0.0013733663 2.1703601e-10 -0.08232955
-0.00018123465 -3.3090546e-12 0.026683308 -0.023959322 0.038125966 -0.01356763 -0.07893476 0.057266466
0.041758817 0.041140676 -0.079163164 -0.001363403 0.043023814 0.03334966 0.043980483 0.040027037
6.1269e-40 -1.8159559e-10 -0.09027948 -0.08348946 0.03931377 0.038912628 0.0017493343 0.04218424
-0.049246565 -0.046626795 -0.0030556687 -0.0021881831 1.1972079e-11 1.77672e-05 1.58575e-40 -0.03676851
-2.0308402e-10 1.2894274e-28 0.047877237 0.064672746 -0.020117342 -0.07764548 -0.056891777 -0.024526503
-0.03757521 -0.017831994 -0.05947491 -0.00023880415 -0.010424294 -0.015198645 -0.015102917 -0.018865662
-3.45675e-40 1.03501e-40 -0.022859072 -0.03310216 -0.017379077 -0.042312782 0.004038441 -0.025665442

flows.0.mprqat.autoregressive_net.blocks.0.linear_layers.1.bias f4 [32]
00000000: 199b 2ebd cbfd 25bc 9029 b4bd 3979 313d
00000010: cc3f 25bc 228e e33b 0a7e 633d e484 ce3b
00000020: 8a15 c0bc ecb5 d23c 96d5 63bb 3ede 3b3c
00000030: 6b92 31bc 1455 1bbd 317e 09bc 0220 ea3c
00000040: bc93 603c 4007 f13c 47d6 ad3c b6c9 f9bc
00000050: f8d1 52bd a359 913c a327 2e3d e6f0 b33b
00000060: 596f de3b 4bfe b43b 9346 d33c 3c81 d93c
00000070: 0443 09bc 9108 633d 8770 07bd b8e3 2fbd
-0.04262838 -0.01013131 -0.0879699 0.043328498 -0.010086011 0.006944434 0.055540122 0.006302463
-0.02344777 0.025721513 -0.0034764758 0.011466561 -0.010838131 -0.037922934 -0.008391903 0.028579716
0.013707098 0.029422402 0.02122034 -0.030491691 -0.051469773 0.017742937 0.04251827 0.005491364
0.006788176 0.005523478 0.025790488 0.026550882 -0.008377794 0.05542809 -0.0330663 -0.04294178

flows.0.mprqat.autoregressive_net.blocks.0.linear_layers.1.mask f4 [32, 32]
00000000: 0000 803f 0000 803f 0000 803f 0000 803f
00000010: 0000 803f 0000 803f 0000 803f 0000 803f
00000020: 0000 803f 0000 803f 0000 803f 0000 803f
00000030: 0000 803f 0000 803f 0000 803f 0000 803f
00000040: 0000 803f 0000 803f 0000 803f 0000 803f
00000050: 0000 803f 0000 803f 0000 803f 0000 803f
00000060: 0000 803f 0000 803f 0000 803f 0000 803f
00000070: 0000 803f 0000 803f 0000 803f 0000 803f
00000080: 0000 803f 0000 803f 0000 803f 0000 803f
00000090: 0000 803f 0000 803f 0000 803f 0000 803f
000000a0: 0000 803f 0000 803f 0000 803f 0000 803f
000000b0: 0000 803f 0000 803f 0000 803f 0000 803f
000000c0: 0000 803f 0000 803f 0000 803f 0000 803f
000000d0: 0000 803f 0000 803f 0000 803f 0000 803f
000000e0: 0000 803f 0000 803f 0000 803f 0000 803f
000000f0: 0000 803f 0000 803f 0000 803f 0000 803f
00000100: 0000 803f 0000 803f 0000 803f 0000 803f
00000110: 0000 803f 0000 803f 0000 803f 0000 803f
00000120: 0000 803f 0000 803f 0000 803f 0000 803f
00000130: 0000 803f 0000 803f 0000 803f 0000 803f
00000140: 0000 803f 0000 803f 0000 803f 0000 803f
00000150: 0000 803f 0000 803f 0000 803f 0000 803f
00000160: 0000 803f 0000 803f 0000 803f 0000 803f
00000170: 0000 803f 0000 803f 0000 803f 0000 803f
00000180: 0000 803f 0000 803f 0000 803f 0000 803f
00000190: 0000 803f 0000 803f 0000 803f 0000 803f
000001a0: 0000 803f 0000 803f 0000 803f 0000 803f
000001b0: 0000 803f 0000 803f 0000 803f 0000 803f
000001c0: 0000 803f 0000 803f 0000 803f 0000 803f
000001d0: 0000 803f 0000 803f 0000 803f 0000 803f
000001e0: 0000 803f 0000 803f 0000 803f 0000 803f
000001f0: 0000 803f 0000 803f 0000 803f 0000 803f
00000200: 0000 803f 0000 803f 0000 803f 0000 803f
00000210: 0000 803f 0000 803f 0000 803f 0000 803f
00000220: 0000 803f 0000 803f 0000 803f 0000 803f
00000230: 0000 803f 0000 803f 0000 803f 0000 803f
00000240: 0000 803f 0000 803f 0000 803f 0000 803f
00000250: 0000 803f 0000 803f 0000 803f 0000 803f
00000260: 0000 803f 0000 803f 0000 803f 0000 803f
00000270: 0000 803f 0000 803f 0000 803f 0000 803f
00000280: 0000 803f 0000 803f 0000 803f 0000 803f
00000290: 0000 803f 0000 803f 0000 803f 0000 803f
000002a0: 0000 803f 0000 803f 0000 803f 0000 803f
000002b0: 0000 803f 0000 803f 0000 803f 0000 803f
000002c0: 0000 803f 0000 803f 0000 803f 0000 803f
000002d0: 0000 803f 0000 803f 0000 803f 0000 803f
000002e0: 0000 803f 0000 803f 0000 803f 0000 803f
000002f0: 0000 803f 0000 803f 0000 803f 0000 803f
00000300: 0000 803f 0000 803f 0000 803f 0000 803f
00000310: 0000 803f 0000 803f 0000 803f 0000 803f
00000320: 0000 803f 0000 803f 0000 803f 0000 803f
00000330: 0000 803f 0000 803f 0000 803f 0000 803f
00000340: 0000 803f 0000 803f 0000 803f 0000 803f
00000350: 0000 803f 0000 803f 0000 803f 0000 803f
00000360: 0000 803f 0000 803f 0000 803f 0000 803f
00000370: 0000 803f 0000 803f 0000 803f 0000 803f
00000380: 0000 803f 0000 803f 0000 803f 0000 803f
00000390: 0000 803f 0000 803f 0000 803f 0000 803f
000003a0: 0000 803f 0000 803f 0000 803f 0000 803f
000003b0: 0000 803f 0000 803f 0000 803f 0000 803f
000003c0: 0000 803f 0000 803f 0000 803f 0000 803f
000003d0: 0000 803f 0000 803f 0000 803f 0000 803f
000003e0: 0000 803f 0000 803f 0000 803f 0000 803f
000003f0: 0000 803f 0000 803f 0000 803f 0000 803f
1.0 1.0 1.0 1.0 1.0 1.0 1.0 1.0
1.0 1.0 1.0 1.0 1.0 1.0 1.0 1.0
1.0 1.0 1.0 1.0 1.0 1.0 1.0 1.0
1.0 1.0 1.0 1.0 1.0 1.0 1.0 1.0
1.0 1.0 1.0 1.0 1.0 1.0 1.0 1.0
1.0 1.0 1.0 1.0 1.0 1.0 1.0 1.0
1.0 1.0 1.0 1.0 1.0 1.0 1.0 1.0
1.0 1.0 1.0 1.0 1.0 1.0 1.0 1.0
1.0 1.0 1.0 1.0 1.0 1.0 1.0 1.0
1.0 1.0 1.0 1.0 1.0 1.0 1.0 1.0
1.0 1.0 1.0 1.0 1.0 1.0 1.0 1.0
1.0 1.0 1.0 1.0 1.0 1.0 1.0 1.0
1.0 1.0 1.0 1.0 1.0 1.0 1.0 1.0
1.0 1.0 1.0 1.0 1.0 1.0 1.0 1.0
1.0 1.0 1.0 1.0 1.0 1.0 1.0 1.0
1.0 1.0 1.0 1.0 1.0 1.0 1.0 1.0
1.0 1.0 1.0 1.0 1.0 1.0 1.0 1.0
1.0 1.0 1.0 1.0 1.0 1.0 1.0 1.0
1.0 1.0 1.0 1.0 1.0 1.0 1.0 1.0
1.0 1.0 1.0 1.0 1.0 1.0 1.0 1.0
1.0 1.0 1.0 1.0 1.0 1.0 1.0 1.0
1.0 1.0 1.0 1.0 1.0 1.0 1.0 1.0
1.0 1.0 1.0 1.0 1.0 1.0 1.0 1.0
1.0 1.0 1.0 1.0 1.0 1.0 1.0 1.0
1.0 1.0 1.0 1.0 1.0 1.0 1.0 1.0
1.0 1.0 1.0 1.0 1.0 1.0 1.0 1.0
1.0 1.0 1.0 1.0 1.0 1.0 1.0 1.0
1.0 1.0 1.0 1.0 1.0 1.0 1.0 1.0
1.0 1.0 1.0 1.0 1.0 1.0 1.0 1.0
1.0 1.0 1.0 1.0 1.0 1.0 1.0 1.0
1.0 1.0 1.0 1.0 1.0 1.0 1.0 1.0
1.0 1.0 1.0 1.0 1.0 1.0 1.0 1.0

flows.0.mprqat.autoregressive_net.blocks.1.linear_layers.0.weight f4 [32, 32]
00000000: 338c b8be 4eb8 1fbe 4334 ac3d b548 3e3e
00000010: d4a3 d3be 18ee 7dbe e545 e23d faf6 0700
00000020: 1204 0400 978a fb3c a2f9 0480 19d1 49bd
00000030: 4a57 a0be 2472 0200 d777 d6bd 03b5 a63d
00000040: b260 13be 0b5c 8ebc 653f 19bd 0098 0180
00000050: d647 45be ce7f 2e3e 8531 b03a c812 1e3e
00000060: 7754 0680 d05b c4be 75d5 603e e2d7 263e
00000070: afe3 bcbe c000 9d3d 5806 0800 e6e6 6cbe
00000080: 5bdc 61be fdd2 5ebe 5754 6abe 96b8 bc3d
00000090: a02f 69be 4444 75be 7d2d 2a3e 0e15 0900
000000a0: 33f4 0780 2ada ebbd 7b0a 0800 528e 48bc
000000b0: 7c0c f7bd 8cc5 0080 3dde e13d 9130 a03c
000000c0: 9e85 98be 7193 11bd 086a 93bd 268e 0600
000000d0: 9ad5 ea3b 1b8e cc3d b83a 92bd a71c e33d
000000e0: 0836 0280 1b58 3fbe 865c 0f3e 6c8d 683e
000000f0: eb69 46be a990 1c3e 79bf 0200 781e 52bd
00000100: 7b0e 4938 a994 05b8 9923 87ba 2c99 bcb8
00000110: 7cbc 0700 fb33 3db9 6f09 5bba d426 0680
00000120: 858d 0480 5da5 05ba 17f0 abb2 b54d dfb9
00000130: f5de 0600 a474 30b2 096e 0eba 21ab 73ba
00000140: 0197 fdb8 c6ad 3fba b4b8 15ba 9eb4 8caf
00000150: d795 1eb7 7ed4 50b8 0335 8eba eb9f 94ba
00000160: 42ce 0200 3aff 18b9 a2ac d8b9 4656 8438
00000170: 4419 f0b8 7fab 66ba e89c 0280 0cd9 8aba
00000180: ed48 36be b176 e2bd edd3 9abc 1a9f 6d3d
00000190: 097d 85be 863c 923d 05b1 cebd d128 0180
000001a0: 3f41 833e 24f5 00bd ffa2 053e 5421 2e3d
000001b0: 8913 8cbe 5bc7 1f3e 6304 30bd 421c 013e
000001c0: 2555 fa3c 6cf9 233d 8056 053e 821f 8c3d
000001d0: 93ce f9bd f192 49bd 04aa 2b3d a402 333e
000001e0: 68b0 0700 5c96 39be f83d ba3d 7d50 a8bd
000001f0: 019a f83d ee39 603d 4075 793d a9e3 c03c
00000200: 7146 0000 3730 0800 5d71 0300 461e 0400
00000210: 31d6 0580 7e7f a2b4 22f2 0580 137d 0800
00000220: 28a1 0080 80e3 cdb5 0e37 f8a8 67a9 89b5
00000230: 15f6 0880 ea49 bda6 802c 0780 fbb0 0100
00000240: fd4a 69b4 7001 0780 95ae b8b3 27f3 f7a0
00000250: 3b68 0780 68fd 8ca0 955f 0180 cab9 0400
00000260: c3da 0800 d129 6bb4 bd3d 06a8 5b43 0800
00000270: 2be3 1db4 08d6 0180 c968 0080 392a 0080
00000280: f2c6 67be 8db0 403a e77d 24bd ab77 8f3d
00000290: 6d84 9cbe 564b 1cbd 74b1 343e 08e6 0500
000002a0: 168b 703e a348 12be 9ec2 873e 4996 073e
000002b0: 4e65 96be 8205 1b3e 9638 3d3d 887d 373d
000002c0: 952e ba3d 69be 873c e8e3 a1bb 9850 843e
000002d0: bbc2 40be b15a 0f3c 65ff 1d3e 1836 e23d
000002e0: cc0b 0980 6f9d f8bc 419b a5bd 7adb 483d
000002f0: 5c09 d73d 4c4b e93d eb1f 313e 60c2 1ebe
00000300: 9cb3 85be a84d 3cbe 1a31 2cbe 5147 d9bd
00000310: ee2d a3be 4c19 31be 1ec6 eb3d 05e5 0480
00000320: 21be 0700 d97c d3bd 4e86 bd1a 3d24 17bd
00000330: 8a65 4bbe 1a8e 3da0 f0c2 923d 441b 333e
00000340: 92de 94be 9461 a5bd 7adf 4b3e ef1e ec02
00000350: 519b 65be 4230 2a3d 9cf1 c13d 631a 4b3e
00000360: d103 0980 b8ad 88be 0e54 e43d 3924 6b3e
00000370: 471d 5cbe 277d c4bd 97d9 0400 6885 96bd
00000380: 8e6d 21bd 9a83 e2bd 3a87 c5bd 1d78 843d
00000390: a07a 49be 9460 2c3e 7e3a 183e 4059 0000
000003a0: 12c8 863e f96d a7bd 7c8b a33d 27e9 b83d
000003b0: 25ca 38be b45f 723e 8b15 ee3d 79a5 d3bc
000003c0: 245f abbd 3241 a4bc f80f de3d 64e6 843e
000003d0: a33b 76bd 8397 42bd 8b2f 993d 44d3 293d
000003e0: 6302 0900 c8f8 34be 8f37 1a3e 2d3f 363e
000003f0: 69ed 29be 7ea7 033e bff9 433e 85e1 05bd
-0.36044464 -0.1559765 0.08408406 0.18582423 -0.41335928 -0.24797857 0.110484876 7.31447e-40
3.68802e-40 0.030705733 -4.56893e-40 -0.049271677 -0.31316596 2.24617e-40 -0.104720764 0.08139994
-0.14392355 -0.017377874 -0.037413973 -1.46363e-40 -0.19265684 0.17040941 0.0013442492 0.15436852
-5.81313e-40 -0.38351297 0.21956427 0.1629329 -0.3689246 0.07666159 7.3696e-40 -0.23134956
-0.22056715 -0.21760173 -0.22883736 0.092148945 -0.22772074 -0.23951823 0.16618915 8.34072e-40
-7.3045e-40 -0.11516221 7.38444e-40 -0.012240963 -0.12062928 -7.0866e-41 0.11028717 0.019554408
-0.29789442 -0.035541 -0.07197958 6.02006e-40 0.0071665766 0.09988042 -0.07140106 0.110894494
-2.03054e-40 -0.18685953 0.14000139 0.22710198 -0.19376342 0.15289558 2.52358e-40 -0.05129859
4.793562e-05 -3.184812e-05 -0.0010310292 -8.993069e-05 7.10464e-40 -0.00018043809 -0.0008355593 -5.64942e-40
-4.1811e-40 -0.00050981884 -2.00162e-08 -0.0004259177 6.30995e-40 -1.0271069e-08 -0.00054332666 -0.00092952145
-0.00012092107 -0.0007311966 -0.0005711422 -2.5594188e-10 -9.452421e-06 -4.9788963e-05 -0.0010849539 -0.0011339163
2.57662e-40 -0.00014590929 -0.00041327352 6.31032e-05 -0.00011448798 -0.00087993586 -2.39958e-40 -0.001059325
-0.17801256 -0.11057795 -0.018899882 0.05801306 -0.26071957 0.0714045 -0.100923575 -1.06478e-40
0.25635716 -0.031483784 0.1305046 0.042512253 -0.27358654 0.15603392 -0.042972934 0.12608436
0.030558178 0.04003279 0.13021278 0.06841947 -0.12197604 -0.0492124 0.041910186 0.17481476
7.06131e-40 -0.18123764 0.09093851 -0.08218477 0.12138749 0.054742746 0.060902834 0.023546057
2.527e-41 7.5198e-40 3.16174e-40 3.78202e-40 -5.36015e-40 -3.0267614e-07 -5.46038e-40 7.79552e-40
-5.7812e-41 -1.5339901e-06 -2.7557407e-14 -1.0256598e-06 -8.22962e-40 -1.3134544e-15 -6.58812e-40 1.55324e-40
-2.1727097e-07 -6.43364e-40 -8.599924e-08 -4.2004332e-19 -6.8024e-40 -2.3884613e-19 -1.26124e-40 4.3399e-40
8.13161e-40 -2.1901293e-07 -7.451882e-15 7.58847e-40 -1.4704408e-07 -1.68615e-40 -3.759e-41 -1.5147e-41
-0.22634485 0.0007350527 -0.040159132 0.07005247 -0.30569783 -0.038157783 0.17645818 5.41697e-40
0.23490557 -0.14285521 0.2651567 0.13240923 -0.29374164 0.1513882 0.046196543 0.04479745
0.09090916 0.016570287 -0.0049404986 0.25842738 -0.18824284 0.00874965 0.15429457 0.11045474
-8.30751e-40 -0.030348508 -0.08086253 0.049037434 0.10499832 0.11391315 0.17297332 -0.15503836
-0.26113594 -0.18388999 -0.16815606 -0.10609306 -0.3187098 -0.17294806 0.11512397 -4.49499e-40
7.11054e-40 -0.10326547 7.838555e-23 -0.036899794 -0.19862953 -1.605594e-19 0.071660876 0.1749087
-0.29076058 -0.08075252 0.19909468 3.4694838e-37 -0.2242253 0.04154993 0.094699115 0.19834284
-8.27889e-40 -0.26695037 0.11148845 0.22963037 -0.21495543 -0.095941834 4.45399e-40 -0.07349664
-0.03941112 -0.11060257 -0.09644933 0.06468222 -0.19675684 0.16833717 0.14866063 3.2017e-41
0.26324517 -0.081752725 0.07985589 0.09028845 -0.18045862 0.2366932 0.11625203 -0.02583574
-0.08367756 -0.020050619 0.108428895 0.25957024 -0.060115468 -0.047507774 0.07479771 0.041461244
8.27376e-40 -0.17673028 0.15060256 0.17797537 -0.16594471 0.12856862 0.1913824 -0.032685775

flows.0.mprqat.autoregressive_net.blocks.1.linear_layers.0.bias f4 [32]
00000000: 552b 993c b8b8 c03d 4757 a2ba c28b 63bd
00000010: 7815 a3b2 76fe ad3d adf2 1f3d aa8a 003e
00000020: 3ef3 183d f4d0 a63d de31 50bd 2cff 95bd
00000030: 4d2a b33d 82f8 0abe b398 073d 2a52 22bc
00000040: 380e a53d 44dd d0b9 8f35 f0bd 41b7 aa94
00000050: beeb eabc bee0 743d 4603 4a3e bd2f 803c
00000060: 2305 383e c574 323d a4cf 1a3e 5c8f 833b
00000070: 733b 8fba d12b e1bd cab8 ccbd f188 8abd
0.01869742 0.09410232 -0.001238563 -0.055553205 -1.898546e-08 0.084958 0.039049793 0.12552896
0.03734135 0.081453234 -0.050828807 -0.07324061 0.087483026 -0.1357136 0.03310461 -0.009907285
0.08059353 -0.00039837707 -0.117289655 -1.7237894e-26 -0.028676864 0.059784643 0.19727811 0.015647763
0.1797071 0.04356839 0.15118271 0.0040148925 -0.0010927751 -0.109946854 -0.09996183 -0.06764401

flows.0.mprqat.autoregressive_net.blocks.1.linear_layers.0.mask f4 [32, 32]
00000000: 0000 803f 0000 803f 0000 803f 0000 803f
00000010: 0000 803f 0000 803f 0000 803f 0000 803f
00000020: 0000 803f 0000 803f 0000 803f 0000 803f
00000030: 0000 803f 0000 803f 0000 803f 0000 803f
00000040: 0000 803f 0000 803f 0000 803f 0000 803f
00000050: 0000 803f 0000 803f 0000 803f 0000 803f
00000060: 0000 803f 0000 803f 0000 803f 0000 803f
00000070: 0000 803f 0000 803f 0000 803f 0000 803f
00000080: 0000 803f 0000 803f 0000 803f 0000 803f
00000090: 0000 803f 0000 803f 0000 803f 0000 803f
000000a0: 0000 803f 0000 803f 0000 803f 0000 803f
000000b0: 0000 803f 0000 803f 0000 803f 0000 803f
000000c0: 0000 803f 0000 803f 0000 803f 0000 803f
000000d0: 0000 803f 0000 803f 0000 803f 0000 803f
000000e0: 0000 803f 0000 803f 0000 803f 0000 803f
000000f0: 0000 803f 0000 803f 0000 803f 0000 803f
00000100: 0000 803f 0000 803f 0000 803f 0000 803f
00000110: 0000 803f 0000 803f 0000 803f 0000 803f
00000120: 0000 803f 0000 803f 0000 803f 0000 803f
00000130: 0000 803f 0000 803f 0000 803f 0000 803f
00000140: 0000 803f 0000 803f 0000 803f 0000 803f
00000150: 0000 803f 0000 803f 0000 803f 0000 803f
00000160: 0000 803f 0000 803f 0000 803f 0000 803f
00000170: 0000 803f 0000 803f 0000 803f 0000 803f
00000180: 0000 803f 0000 803f 0000 803f 0000 803f
00000190: 0000 803f 0000 803f 0000 803f 0000 803f
000001a0: 0000 803f 0000 803f 0000 803f 0000 803f
000001b0: 0000 803f 0000 803f 0000 803f 0000 803f
000001c0: 0000 803f 0000 803f 0000 803f 0000 803f
000001d0: 0000 803f 0000 803f 0000 803f 0000 803f
000001e0: 0000 803f 0000 803f 0000 803f 0000 803f
000001f0: 0000 803f 0000 803f 0000 803f 0000 803f
00000200: 0000 803f 0000 803f 0000 803f 0000 803f
00000210: 0000 803f 0000 803f 0000 803f 0000 803f
00000220: 0000 803f 0000 803f 0000 803f 0000 803f
00000230: 0000 803f 0000 803f 0000 803f 0000 803f
00000240: 0000 803f 0000 803f 0000 803f 0000 803f
00000250: 0000 803f 0000 803f 0000 803f 0000 803f
00000260: 0000 803f 0000 803f 0000 803f 0000 803f
00000270: 0000 803f 0000 803f 0000 803f 0000 803f
00000280: 0000 803f 0000 803f 0000 803f 0000 803f
00000290: 0000 803f 0000 803f 0000 803f 0000 803f
000002a0: 0000 803f 0000 803f 0000 803f 0000 803f
000002b0: 0000 803f 0000 803f 0000 803f 0000 803f
000002c0: 0000 803f 0000 803f 0000 803f 0000 803f
000002d0: 0000 803f 0000 803f 0000 803f 0000 803f
000002e0: 0000 803f 0000 803f 0000 803f 0000 803f
000002f0: 0000 803f 0000 803f 0000 803f 0000 803f
00000300: 0000 803f 0000 803f 0000 803f 0000 803f
00000310: 0000 803f 0000 803f 0000 803f 0000 803f
00000320: 0000 803f 0000 803f 0000 803f 0000 803f
00000330: 0000 803f 0000 803f 0000 803f 0000 803f
00000340: 0000 803f 0000 803f 0000 803f 0000 803f
00000350: 0000 803f 0000 803f 0000 803f 0000 803f
00000360: 0000 803f 0000 803f 0000 803f 0000 803f
00000370: 0000 803f 0000 803f 0000 803f 0000 803f
00000380: 0000 803f 0000 803f 0000 803f 0000 803f
00000390: 0000 803f 0000 803f 0000 803f 0000 803f
000003a0: 0000 803f 0000 803f 0000 803f 0000 803f
000003b0: 0000 803f 0000 803f 0000 803f 0000 803f
000003c0: 0000 803f 0000 803f 0000 803f 0000 803f
000003d0: 0000 803f 0000 803f 0000 803f 0000 803f
000003e0: 0000 803f 0000 803f 0000 803f 0000 803f
000003f0: 0000 803f 0000 803f 0000 803f 0000 803f
1.0 1.0 1.0 1.0 1.0 1.0 1.0 1.0
1.0 1.0 1.0 1.0 1.0 1.0 1.0 1.0
1.0 1.0 1.0 1.0 1.0 1.0 1.0 1.0
1.0 1.0 1.0 1.0 1.0 1.0 1.0 1.0
1.0 1.0 1.0 1.0 1.0 1.0 1.0 1.0
1.0 1.0 1.0 1.0 1.0 1.0 1.0 1.0
1.0 1.0 1.0 1.0 1.0 1.0 1.0 1.0
1.0 1.0 1.0 1.0 1.0 1.0 1.0 1.0
1.0 1.0 1.0 1.0 1.0 1.0 1.0 1.0
1.0 1.0 1.0 1.0 1.0 1.0 1.0 1.0
1.0 1.0 1.0 1.0 1.0 1.0 1.0 1.0
1.0 1.0 1.0 1.0 1.0 1.0 1.0 1.0
1.0 1.0 1.0 1.0 1.0 1.0 1.0 1.0
1.0 1.0 1.0 1.0 1.0 1.0 1.0 1.0
1.0 1.0 1.0 1.0 1.0 1.0 1.0 1.0
1.0 1.0 1.0 1.0 1.0 1.0 1.0 1.0
1.0 1.0 1.0 1.0 1.0 1.0 1.0 1.0
1.0 1.0 1.0 1.0 1.0 1.0 1.0 1.0
1.0 1.0 1.0 1.0 1.0 1.0 1.0 1.0
1.0 1.0 1.0 1.0 1.0 1.0 1.0 1.0
1.0 1.0 1.0 1.0 1.0 1.0 1.0 1.0
1.0 1.0 1.0 1.0 1.0 1.0 1.0 1.0
1.0 1.0 1.0 1.0 1.0 1.0 1.0 1.0
1.0 1.0 1.0 1.0 1.0 1.0 1.0 1.0
1.0 1.0 1.0 1.0 1.0 1.0 1.0 1.0
1.0 1.0 1.0 1.0 1.0 1.0 1.0 1.0
1.0 1.0 1.0 1.0 1.0 1.0 1.0 1.0
1.0 1.0 1.0 1.0 1.0 1.0 1.0 1.0
1.0 1.0 1.0 1.0 1.0 1.0 1.0 1.0
1.0 1.0 1.0 1.0 1.0 1.0 1.0 1.0
1.0 1.0 1.0 1.0 1.0 1.0 1.0 1.0
1.0 1.0 1.0 1.0 1.0 1.0 1.0 1.0

flows.0.mprqat.autoregressive_net.blocks.1.linear_layers.1.weight f4 [32, 32]
00000000: e941 1d3d 9c76 a23c b6cf ff39 a215 a9b8
00000010: aae7 e3aa 29dd 863b 1073 1d3d 3830 863c
00000020: 76bf f1bd 86b9 a13d b653 e6bd 58cc 203c
00000030: ddd9 893c 9814 0f3d a4cf c93d c9ae c73d
00000040: 414b e7be 5a4e ac38 a961 49be bdde 4793
00000050: 4448 773d e694 db3d 039b 36be 221e 873b
00000060: 8bea ec3d 5d34 b6bd 743a 0dbc f46d 6abd
00000070: 32f6 9cb7 de69 97be be40 e53a ca20 49bd
00000080: 0065 2b3d 1091 1dbc 733c 083a 5ddb a0bb
00000090: 2d6a 2892 107a 5cbc fc9b f43c a349 98bb
000000a0: 85f3 21be 8a54 843d 6d01 23be b6d5 f8bc
000000b0: 2fcc e53b 0483 b83c ce27 d03d 0217 a03d
000000c0: 761d c2be fae0 5a37 6172 8abe 8dcc 0400
000000d0: 5f79 2a3d af06 de3d 7256 78be 2796 22bc
000000e0: 7c10 003e 22c6 0abe c2bf 54bc 961c 14be
000000f0: 424e e135 a796 afbe 848a bebd 05ca 91bd
00000100: 1b8f 803c bd18 16bc 428f 12b8 5d1e 003d
00000110: 983f 0417 62f8 c83c c284 d7ba ac24 85bc
00000120: 6294 de3b edd6 34bd 0678 e43c 1abe 143d
00000130: 539c e3bb 24d7 583d 2eb7 3d3d 4a0e a63d
00000140: c368 d2bd 11b3 bdb7 4711 9e3c fd28 0480
00000150: 496d abbc 5bfb 2dbd 68a0 d53c 8ef4 dc3c
00000160: b9c7 78bd ec65 ab3d c14a 04bc 418a 1bbd
00000170: 5cde 1b37 50f7 423e 5247 713c 74d8 813d
00000180: bbdb 0c3e a902 ae3d 135c bf38 5874 973c
00000190: 9ba2 88af ad73 403d 2b3d e83d c4cb 0c3d
000001a0: 5b99 91bc e8bc 043e 4a0a c9bb 90b8 3c3d
000001b0: d2d1 733d eaf0 893d dcdb e23d 1ea9 1c3e
000001c0: 1fa2 dabe 4040 ed38 2699 8cbd 2422 0580
000001d0: 7afc ca3d 8d41 133e c6c9 cbbd 9434 c13d
000001e0: bffb 143e 127b 553c 817b d13c 8e64 0d3e
000001f0: 8647 ba38 8829 43be 38f9 1a3e 4a3a 413d
00000200: 3587 02be e09e 6bbd 54ee 0bb8 c7ea 5dbb
00000210: ae72 4729 bab6 c2bc 0166 b4bd b709 99bc
00000220: c4db f9bb ccbb b1bd 5343 1cbb 1c41 a03b
00000230: 2227 18bd 58d1 20bd 42a6 89bd 0ef7 adbd
00000240: 9c19 0d3e ae33 3fb8 0399 b23c efbf 0280
00000250: a829 6ebd 9b64 d9bd f9af ab3d 221b adbd
00000260: fa57 d1bd f178 343b ac56 63bc 2d80 15be
00000270: 676c 3bb8 ac67 223e a281 09be 817f 33bd
00000280: 5460 33bd 14fb 32bd af4b 2fba 4e18 06bd
00000290: 7518 eaa5 e109 0abd 1127 37bd ce4d 06bd
000002a0: 9bcd 223c 1dae b9bc 6bee a5bc 09a1 6bbd
000002b0: aed7 cbbc d9b6 84bd b90d 36bd 33c2 7bbd
000002c0: e47e d1be c682 2539 b8c1 9e3b 79dc 4c18
000002d0: 8d09 f6bc 52d3 9abc 69b1 aa3b 2e96 53bd
000002e0: 85f0 933a 0daa c7bd bfb2 6cbc b45b 613d
000002f0: 7232 45b9 8968 cabd 3991 a93c 099e 7ebd
00000300: ce38 2a3d 2384 253d 4fff 6c3a 13fa ac3c
00000310: 9c33 421d c7c1 b03c 5453 283d e26d e93c
00000320: 697a f6bb 3103 013d 043f 4f3c 9924 f93c
00000330: 8065 af3c 9c03 243d 5ad8 df3c 5e74 293d
00000340: 3a95 103f 07cc 7db8 b52b a4bc b9b8 c814
00000350: 3462 f73c 93cf e73c 4d8f cbbb f32d 313d
00000360: db1a 1b3c ba0f b43d ace9 843c 9d5e 43bd
00000370: c452 9138 e564 7c3c dad4 ecbc 8468 2c3d
00000380: 0993 dabd 23f7 1fbd 6649 60b6 f2d6 84bb
00000390: 8c2f 8621 0c28 9dbc 9955 89bd 7ea0 e9bb
000003a0: 1d14 d8bc 0250 19bd 69a1 a4bc 550a c939
000003b0: cf60 d9bc 30b2 1cbd b858 10bd 637c 2dbd
000003c0: bc9e 283e 9b26 cfb6 a1ad debc 793e 0080
000003d0: b180 adbc b629 3dbd 5846 3f3d f928 a7bd
000003e0: fa28 20bd 4468 26bc c434 04bc fe8e 32be
000003f0: fd5d d8b6 9f64 1a3c 705a 15be 0803 8dbd
0.038392935 0.019831948 0.00048792147 -8.0625774e-05 -4.048405e-13 0.00411572 0.03843981 0.016380414
-0.118040964 0.07896714 -0.11246435 0.009814344 0.016827518 0.03493175 0.098540574 0.097501345
-0.45174602 8.216193e-05 -0.1966616 -2.522715e-27 0.060371652 0.107217595 -0.1783257 0.004123465
0.11568173 -0.08896706 -0.008619893 -0.057233766 -1.8711293e-05 -0.29572958 0.0017490608 -0.049103536
0.041844368 -0.009617105 0.0005196996 -0.0049089626 -5.3142325e-28 -0.013456836 0.029859535 -0.00464745
-0.15815552 0.06461437 -0.15918513 -0.030375343 0.007012866 0.02252341 0.10163842 0.078168884
-0.37913102 1.3046194e-05 -0.2704039 4.40721e-40 0.041619655 0.108411185 -0.24251726 -0.009923494
0.12506288 -0.13552144 -0.012985172 -0.1446403 1.6786582e-06 -0.34294626 -0.093037635 -0.0711861
0.015693238 -0.0091611715 -3.494253e-05 0.031278957 4.2731767e-25 0.0245325 -0.0016442763 -0.016252838
0.006792591 -0.04415028 0.027889263 0.036314107 -0.0069461255 0.05293955 0.046317272 0.08108194
-0.10273888 -2.261394e-05 0.019295348 -3.82046e-40 -0.020926135 -0.04247604 0.026077464 0.026972082
-0.060737345 0.083690494 -0.008074463 -0.037973646 9.290492e-06 0.19039655 0.014726477 0.06340113
0.13755696 0.08496601 9.12474e-05 0.018488094 -2.4853794e-10 0.046985317 0.11339792 0.034374014
-0.01777332 0.12962687 -0.0061352598 0.04607445 0.059526272 0.06735404 0.11077091 0.15298888
-0.42701814 0.00011313008 -0.06865148 -4.71425e-40 0.09911437 0.14380474 -0.099505946 0.094338566
0.14549159 0.0130298305 0.025571587 0.1380789 8.8824934e-05 -0.19058812 0.15134132 0.04717473
-0.1274689 -0.057524562 -3.3362143e-05 -0.0033861862 4.4286345e-14 -0.023768771 -0.08808518 -0.01868139
-0.007625075 -0.086783975 -0.002384384 0.004890574 -0.037146695 -0.039262146 -0.06721164 -0.084943876
0.137793 -4.558608e-05 0.021801477 -2.52524e-40 -0.058145195 -0.10614892 0.083831735 -0.08452441
-0.10221858 0.0027537907 -0.013875645 -0.14599676 -4.4685232e-05 0.1585986 -0.13428357 -0.04382277
-0.043793038 -0.043696478 -0.0006686998 -0.032738023 -4.0609102e-16 -0.033700828 -0.04471499 -0.032789044
0.0099367155 -0.022666031 -0.020255288 -0.057526622 -0.024883118 -0.06480188 -0.04444668 -0.0614645
-0.40917122 0.00015784343 0.0048448704 2.6477692e-24 -0.030033851 -0.018899594 0.005209137 -0.051656894
0.001128689 -0.097492315 -0.014446913 0.055019096 -0.00018806176 -0.0988322 0.02069913 -0.062162433
0.04155808 0.04040922 0.00090407295 0.021115338 2.5702368e-21 0.021576775 0.041095093 0.028494779
-0.0075219166 0.031497184 0.012649301 0.030412959 0.021410704 0.040042505 0.027324844 0.041370742
0.564777 -6.0509916e-05 -0.020040372 2.02677e-26 0.030198194 0.028297221 -0.006212151 0.04325671
0.009466852 0.08792062 0.016224705 -0.047697652 6.929555e-05 0.0154049145 -0.02891009 0.04209186
-0.10672576 -0.039054047 -3.3421325e-06 -0.004053944 9.092779e-19 -0.019184135 -0.067057796 -0.007129728
-0.026376778 -0.037429817 -0.020096498 0.00038345405 -0.02653542 -0.03825587 -0.03524086 -0.042354953
0.16466802 -6.173575e-06 -0.027182402 -2.2411e-41 -0.021179529 -0.046182357 0.046697944 -0.08162112
-0.03910158 -0.010156695 -0.008069221 -0.1743736 -6.4482433e-06 0.009423404 -0.1458528 -0.06885344

flows.0.mprqat.autoregressive_net.blocks.1.linear_layers.1.bias f4 [32]
00000000: d124 17bd 83b1 fabc e646 60bd ea66 d1bb
00000010: bed4 97ba c439 4cba 216b ae3c 6408 cc3b
00000020: 2a00 363c 1d0c 593c 5589 553b 3d67 553c
00000030: 95b5 f1ba 0bd5 0f3b 4533 d3b8 0f97 09bc
00000040: 26e3 a03c 7c64 98bb a765 5e3b 6ade cd3b
00000050: 551c 8abc 6506 a0ba 5f22 0dbc 27d0 d53c
00000060: dc2e cc3b 21c6 7a3c 0390 dc3a 8eed 71bc
00000070: 4b18 553c 240d 7f3b b854 1b3c b168 3dbd
-0.036900345 -0.030602222 -0.054755114 -0.006390442 -0.0011583788 -0.000779059 0.021291317 0.006226586
0.011108438 0.013247517 0.0032583077 0.013025102 -0.0018440956 0.0021947052 -0.00010070814 -0.008397832
0.019639563 -0.0046506505 0.0033935101 0.0062826173 -0.016859213 -0.0012208937 -0.008614152 0.026100231
0.006231172 0.015306027 0.0016827587 -0.01476611 0.01300628 0.0038917745 0.009480648 -0.04624242

flows.0.mprqat.autoregressive_net.blocks.1.linear_layers.1.mask f4 [32, 32]
00000000: 0000 803f 0000 803f 0000 803f 0000 803f
00000010: 0000 803f 0000 803f 0000 803f 0000 803f
00000020: 0000 803f 0000 803f 0000 803f 0000 803f
00000030: 0000 803f 0000 803f 0000 803f 0000 803f
00000040: 0000 803f 0000 803f 0000 803f 0000 803f
00000050: 0000 803f 0000 803f 0000 803f 0000 803f
00000060: 0000 803f 0000 803f 0000 803f 0000 803f
00000070: 0000 803f 0000 803f 0000 803f 0000 803f
00000080: 0000 803f 0000 803f 0000 803f 0000 803f
00000090: 0000 803f 0000 803f 0000 803f 0000 803f
000000a0: 0000 803f 0000 803f 0000 803f 0000 803f
000000b0: 0000 803f 0000 803f 0000 803f 0000 803f
000000c0: 0000 803f 0000 803f 0000 803f 0000 803f
000000d0: 0000 803f 0000 803f 0000 803f 0000 803f
000000e0: 0000 803f 0000 803f 0000 803f 0000 803f
000000f0: 0000 803f 0000 803f 0000 803f 0000 803f
00000100: 0000 803f 0000 803f 0000 803f 0000 803f
00000110: 0000 803f 0000 803f 0000 803f 0000 803f
00000120: 0000 803f 0000 803f 0000 803f 0000 803f
00000130: 0000 803f 0000 803f 0000 803f 0000 803f
00000140: 0000 803f 0000 803f 0000 803f 0000 803f
00000150: 0000 803f 0000 803f 0000 803f 0000 803f
00000160: 0000 803f 0000 803f 0000 803f 0000 803f
00000170: 0000 803f 0000 803f 0000 803f 0000 803f
00000180: 0000 803f 0000 803f 0000 803f 0000 803f
00000190: 0000 803f 0000 803f 0000 803f 0000 803f
000001a0: 0000 803f 0000 803f 0000 803f 0000 803f
000001b0: 0000 803f 0000 803f 0000 803f 0000 803f
000001c0: 0000 803f 0000 803f 0000 803f 0000 803f
000001d0: 0000 803f 0000 803f 0000 803f 0000 803f
000001e0: 0000 803f 0000 803f 0000 803f 0000 803f
000001f0: 0000 803f 0000 803f 0000 803f 0000 803f
00000200: 0000 803f 0000 803f 0000 803f 0000 803f
00000210: 0000 803f 0000 803f 0000 803f 0000 803f
00000220: 0000 803f 0000 803f 0000 803f 0000 803f
00000230: 0000 803f 0000 803f 0000 803f 0000 803f
00000240: 0000 803f 0000 803f 0000 803f 0000 803f
00000250: 0000 803f 0000 803f 0000 803f 0000 803f
00000260: 0000 803f 0000 803f 0000 803f 0000 803f
00000270: 0000 803f 0000 803f 0000 803f 0000 803f
00000280: 0000 803f 0000 803f 0000 803f 0000 803f
00000290: 0000 803f 0000 803f 0000 803f 0000 803f
000002a0: 0000 803f 0000 803f 0000 803f 0000 803f
000002b0: 0000 803f 0000 803f 0000 803f 0000 803f
000002c0: 0000 803f 0000 803f 0000 803f 0000 803f
000002d0: 0000 803f 0000 803f 0000 803f 0000 803f
000002e0: 0000 803f 0000 803f 0000 803f 0000 803f
000002f0: 0000 803f 0000 803f 0000 803f 0000 803f
00000300: 0000 803f 0000 803f 0000 803f 0000 803f
00000310: 0000 803f 0000 803f 0000 803f 0000 803f
00000320: 0000 803f 0000 803f 0000 803f 0000 803f
00000330: 0000 803f 0000 803f 0000 803f 0000 803f
00000340: 0000 803f 0000 803f 0000 803f 0000 803f
00000350: 0000 803f 0000 803f 0000 803f 0000 803f
00000360: 0000 803f 0000 803f 0000 803f 0000 803f
00000370: 0000 803f 0000 803f 0000 803f 0000 803f
00000380: 0000 803f 0000 803f 0000 803f 0000 803f
00000390: 0000 803f 0000 803f 0000 803f 0000 803f
000003a0: 0000 803f 0000 803f 0000 803f 0000 803f
000003b0: 0000 803f 0000 803f 0000 803f 0000 803f
000003c0: 0000 803f 0000 803f 0000 803f 0000 803f
000003d0: 0000 803f 0000 803f 0000 803f 0000 803f
000003e0: 0000 803f 0000 803f 0000 803f 0000 803f
000003f0: 0000 803f 0000 803f 0000 803f 0000 803f
1.0 1.0 1.0 1.0 1.0 1.0 1.0 1.0
1.0 1.0 1.0 1.0 1.0 1.0 1.0 1.0
1.0 1.0 1.0 1.0 1.0 1.0 1.0 1.0
1.0 1.0 1.0 1.0 1.0 1.0 1.0 1.0
1.0 1.0 1.0 1.0 1.0 1.0 1.0 1.0
1.0 1.0 1.0 1.0 1.0 1.0 1.0 1.0
1.0 1.0 1.0 1.0 1.0 1.0 1.0 1.0
1.0 1.0 1.0 1.0 1.0 1.0 1.0 1.0
1.0 1.0 1.0 1.0 1.0 1.0 1.0 1.0
1.0 1.0 1.0 1.0 1.0 1.0 1.0 1.0
1.0 1.0 1.0 1.0 1.0 1.0 1.0 1.0
1.0 1.0 1.0 1.0 1.0 1.0 1.0 1.0
1.0 1.0 1.0 1.0 1.0 1.0 1.0 1.0
1.0 1.0 1.0 1.0 1.0 1.0 1.0 1.0
1.0 1.0 1.0 1.0 1.0 1.0 1.0 1.0
1.0 1.0 1.0 1.0 1.0 1.0 1.0 1.0
1.0 1.0 1.0 1.0 1.0 1.0 1.0 1.0
1.0 1.0 1.0 1.0 1.0 1.0 1.0 1.0
1.0 1.0 1.0 1.0 1.0 1.0 1.0 1.0
1.0 1.0 1.0 1.0 1.0 1.0 1.0 1.0
1.0 1.0 1.0 1.0 1.0 1.0 1.0 1.0
1.0 1.0 1.0 1.0 1.0 1.0 1.0 1.0
1.0 1.0 1.0 1.0 1.0 1.0 1.0 1.0
1.0 1.0 1.0 1.0 1.0 1.0 1.0 1.0
1.0 1.0 1.0 1.0 1.0 1.0 1.0 1.0
1.0 1.0 1.0 1.0 1.0 1.0 1.0 1.0
1.0 1.0 1.0 1.0 1.0 1.0 1.0 1.0
1.0 1.0 1.0 1.0 1.0 1.0 1.0 1.0
1.0 1.0 1.0 1.0 1.0 1.0 1.0 1.0
1.0 1.0 1.0 1.0 1.0 1.0 1.0 1.0
1.0 1.0 1.0 1.0 1.0 1.0 1.0 1.0
1.0 1.0 1.0 1.0 1.0 1.0 1.0 1.0
