retrieval_support/vae_pt_models/flow.pt (torch, 477293 bytes, 162 tensors)

loc f4 [1, 2]
00000000: 0000 0000 0000 0000
0.0 0.0

log_scale f4 [1, 2]
00000000: 0000 0000 0000 0000
0.0 0.0

weight f4 [32, 2]
00000000: eb7d 15bf 03a3 4cbd ac64 233f 753e bc3c
00000010: af33 543e f632 4bbb 56b2 e73e 9b6e 5c95
00000020: 86c0 ecbe 48c9 debd d65d 42be fc96 4102
00000030: 3e7a ab3e b2b1 a3b5 6a26 edbe b8af 0fbc
00000040: bcb3 5f3e 403a c43c c628 2d3f 1f00 333d
00000050: f8a3 d2bd 7c1f 423e 96b0 09bf 50ff 763b
00000060: 30e5 3abf 2e66 d23c 28ca 2e3f 6c39 db33
00000070: 12b6 1f3f daa6 8f32 c4eb 53bd 5dae 853b
00000080: 4a4b 373f f046 443e 25c9 35bf cabc c536
00000090: 3448 293e a70f 1181 f959 2fbe 025e 66be
000000a0: 0885 cbbe c02d 293e 8db8 00bc b508 33bd
000000b0: 22fc b3be 2108 10ac 9aa8 babe 5239 ac29
000000c0: b6f5 d1be 3f8f ed3d 3be2 e2be d88d 29b4
000000d0: 2d8d 403e d722 03bd 978e 1a3f 6e82 8782
000000e0: 8c6d e43e e126 c63a f944 3b3f 5056 bebd
000000f0: 4612 27bf 0a2f 9e36 4a4c 043f ae19 03bc
-0.5839526 -0.049960148 0.6382549 0.022979 0.2072284 -0.0031005717 0.45253247 -4.45159e-26
-0.46240634 -0.10878235 -0.18981108 1.4222731e-37 0.334917 -1.2196163e-06 -0.4631837 -0.008769922
0.21845907 0.023953557 0.6764034 0.043701287 -0.10285181 0.18957323 -0.53785074 0.00376888
-0.7300596 0.025683489 0.68277216 1.0208427e-07 0.6238719 1.6723266e-08 -0.051738515 0.0040796236
0.71599257 0.19167686 -0.7101005 5.8930354e-06 0.1653145 -2.6643524e-38 -0.17124166 -0.22496799
-0.39749932 0.16521358 -0.0078565 -0.043709476 -0.351533 -2.0468143e-12 -0.36456758 7.648278e-14
-0.41007775 0.11599588 -0.44313225 -1.5790954e-07 0.18803854 -0.032015648 0.60373825 -1.991133e-37
0.44614828 0.0015117788 0.7315212 -0.092938066 -0.6526226 4.714243e-06 0.5167891 -0.008001728

bias f4 [32]
00000000: 180b 94be 02be c237 f9f4 f4bd d796 babe
00000010: 2708 02bf f709 1dbf d3b3 aebd 7964 0dbf
00000020: 19fc b1be 1c41 33bf 0600 30bf 1d05 a4bd
00000030: 81b9 c83c c024 8b3e 203b 51be 9836 cbbe
00000040: 1d26 383f 44d1 2bbf 0d0b cb3e 975c 143f
00000050: 3116 6ebc eb23 153f d037 8cbe 434b 173e
00000060: bbfe 053e a427 e7be 88c8 683e d2c7 243f
00000070: 2c7f 30bf 5bf0 03bf 223a f53d 4e3c 2d3f
-0.28914714 2.3215081e-05 -0.11960787 -0.36443207 -0.5079369 -0.6134333 -0.085303925 -0.55231434
-0.34762648 -0.70021224 -0.68750036 -0.08008788 0.024502518 0.27176476 -0.2043271 -0.3969009
0.71933156 -0.6711619 0.3965687 0.5795378 -0.014531658 0.5825793 -0.27386332 0.14774804
0.13085453 -0.4514743 0.22732747 0.643674 -0.6894405 -0.5153863 0.119739786 0.6767014

mask f4 [32, 2]
00000000: 0000 803f 0000 0000 0000 803f 0000 0000
00000010: 0000 803f 0000 0000 0000 803f 0000 0000
00000020: 0000 803f 0000 0000 0000 803f 0000 0000
00000030: 0000 803f 0000 0000 0000 803f 0000 0000
00000040: 0000 803f 0000 0000 0000 803f 0000 0000
00000050: 0000 803f 0000 0000 0000 803f 0000 0000
00000060: 0000 803f 0000 0000 0000 803f 0000 0000
00000070: 0000 803f 0000 0000 0000 803f 0000 0000
00000080: 0000 803f 0000 0000 0000 803f 0000 0000
00000090: 0000 803f 0000 0000 0000 803f 0000 0000
000000a0: 0000 803f 0000 0000 0000 803f 0000 0000
000000b0: 0000 803f 0000 0000 0000 803f 0000 0000
000000c0: 0000 803f 0000 0000 0000 803f 0000 0000
000000d0: 0000 803f 0000 0000 0000 803f 0000 0000
000000e0: 0000 803f 0000 0000 0000 803f 0000 0000
000000f0: 0000 803f 0000 0000 0000 803f 0000 0000
1.0 0.0 1.0 0.0 1.0 0.0 1.0 0.0
1.0 0.0 1.0 0.0 1.0 0.0 1.0 0.0
1.0 0.0 1.0 0.0 1.0 0.0 1.0 0.0
1.0 0.0 1.0 0.0 1.0 0.0 1.0 0.0
1.0 0.0 1.0 0.0 1.0 0.0 1.0 0.0
1.0 0.0 1.0 0.0 1.0 0.0 1.0 0.0
1.0 0.0 1.0 0.0 1.0 0.0 1.0 0.0
1.0 0.0 1.0 0.0 1.0 0.0 1.0 0.0

weight f4 [32, 32]
00000000: ab32 2a33 3c6a c0b7 981a 0935 fe1d c79b
00000010: 445c f3b6 e3b2 c3b2 8bbe 21b7 c32f 5b36
00000020: 6648 ca82 7c58 0401 7d93 5a0c d704 0b02
00000030: c1bc d9b6 81a9 6d02 a89e e7b0 30af 5c02
00000040: abd8 2fab 087a 7f80 ef3a 818c bc6f b981
00000050: 0200 0202 ba1f bcb6 087d ab92 fed0 9682
00000060: 62cf 9014 0a96 41aa 5afa 401b 60cf 9232
00000070: 1a75 0e36 974b e21c aca7 da08 75ac 521c
00000080: 8a69 132b 42bf 87bd 6e4f b6bd 681d 433e
00000090: 8ed2 4209 ba7d f001 9485 2f3d b0bc 13ac
000000a0: 559e 28be 9761 613e a66c 4f10 b3b1 28b5
000000b0: 4764 042c b1f3 553e ffdd 3c3e da65 49b7
000000c0: 7d9d 5b3d 2ce9 54b5 a395 853d a125 9bbd
000000d0: b618 0537 c318 06bd 65a6 3c01 e08a 2cbe
000000e0: 6da5 33be 4464 0689 bf9e 253d e1ad 613d
000000f0: 6a26 96bd 0f91 513d f033 abbd 6477 54bc
00000100: 893e 013d f570 17b4 adab d723 0f66 d582
00000110: 130a 373c cfb3 6e90 f140 b8ad 3046 033e
00000120: b5a6 bc34 bde4 6daf 8067 8b82 d335 043e
00000130: 85ac b0bc 78bc 2b34 259d a187 a237 7312
00000140: 70b4 dcbd 8eed 623e ee6c 0abe 07b3 2abd
00000150: 607a 243c 0a91 543d 2578 303e b18b 613e
00000160: 938b 6e3c 5440 353e 7a5c 38be 6663 03be
00000170: a397 43b6 246b 3082 b5e7 2fbd 3db1 7fbe
00000180: 9d4c dcbe 21e9 d43d d863 383e 438d 433d
00000190: dbbe 1e32 4113 bdb6 ce4c bd3c d8e8 46b7
000001a0: a17d 59be d15e 123e 0fb3 2d9e cab2 febd
000001b0: 1cda dabc 4ef0 353e da35 113e 1ada f027
000001c0: 6922 b33d 52a8 422d 0a7c 4e3e 219a 85bd
000001d0: 1389 bcbd 0fc6 b5bd f974 6682 0841 6a3e
000001e0: 1a26 60ba 50aa 4800 965c 263e cbd7 9b3d
000001f0: bb5e 88be ee87 04bd 27ed b73d 9ca8 c83d
00000200: c81f e93c bf9d 4d19 b4f3 9901 1ca3 ba92
00000210: 3848 b43c 82f0 d0b5 01f0 b59b 0cd0 a2bc
00000220: ea2e fda1 e26c 0700 8886 ae00 4c1b b43c
00000230: 0a4b 753c f8d5 c7b5 b520 4a35 25a3 5a98
00000240: 3ac2 a5bc ba38 813d 1560 493c 7b70 c0bb
00000250: 9b8d ad3c 8dd3 c83c ebb9 a63d 604a 443d
00000260: f0b0 593d f47e 73ba 7a44 b4be 72a0 83be
00000270: c601 289e 5996 fab1 6022 08bc f501 89be
00000280: aa4a 5e3d 2d4e 1fbe 9f29 723c f89a 813d
00000290: fe39 ae3d 5e71 adb2 ddc8 f5bb a76b 20be
000002a0: 270a 78bd ab21 b63d 28c0 4b01 6589 0b3e
000002b0: 7dcf 723d fe82 243e 7980 323d 4566 a9b7
000002c0: 0d85 3a3e 72df edbd 1fd0 b13c 60cf 313e
000002d0: ea20 7c3d 4a3c 273e f638 c4bd e4c5 1cbe
000002e0: 2868 15bd cf8e f53c 4acc 0dbe 7b42 4e3d
000002f0: 1891 6cbd 0a69 d63d fb16 97bd edc3 fc3d
00000300: 44d4 b8be b3a0 a7bd efc4 48bc 50f4 7f3d
00000310: cc79 e50f 59cf 3c1e 49c6 d7bc c69c e2b4
00000320: 6560 89be 1f52 093d de7a 8ab4 a32d e5bd
00000330: 3a46 d5bd 218c a3bd 1868 f6bd 5403 3b02
00000340: 6110 9f3d bfdd 842e 9ca2 2d3d c7f0 b43d
00000350: fe02 5dbd 6f4a 11bd 91fa 0c21 a99a 10be
00000360: 2f3f 9bbd aace ce87 d8a0 5ebd f6d2 8a3b
00000370: ee6f d6bd 8273 2b3d ca78 eabc 595f 463e
00000380: 55bf 92bd 2e0e 6e02 b0f0 022f ff1e 9d2b
00000390: af09 5dbd 6992 9cb6 edd5 a287 d192 a13c
000003a0: 08f9 df34 aa14 a0b7 4850 2700 0e9f 203e
000003b0: cb9e 8abc 62b0 2a98 725f af81 046f c6b6
000003c0: 57f1 f33c 9e85 203d 74d1 83bd cda4 a53d
000003d0: 5ef3 bd3d 6764 f8bd c84d 2b3e 054b 843d
000003e0: 58de d33c 3898 3c3e 0c2f 6b39 00b0 4bbd
000003f0: 0bd1 f636 2ed8 32b7 4a0e 093d 9f39 0dbe
3.962729e-08 -2.2937653e-05 5.1075176e-07 -3.294117e-22 -7.2527055e-06 -2.2782336e-08 -9.640712e-06 3.2661344e-06
-2.9722787e-37 2.4308055e-38 1.6838492e-31 1.0213496e-37 -6.489078e-06 1.7460655e-37 -1.6852555e-09 1.6213324e-37
-6.2473177e-13 -1.1706885e-38 -1.9911066e-31 -6.81186e-38 9.550894e-38 -5.60653e-06 -1.082244e-27 -2.2160475e-37
1.4622082e-26 -1.7193899e-13 1.5962761e-22 1.709094e-08 2.122781e-06 1.4974965e-21 1.3159817e-33 6.9706067e-22
5.2371356e-13 -0.066282764 -0.08901869 0.19054186 2.3450903e-33 8.8342485e-38 0.042852 -2.09947e-12
-0.16466649 0.22009884 4.0907252e-29 -6.2843463e-07 1.8813993e-12 0.20893742 0.1844406 -1.2004248e-05
0.05361699 -7.9315464e-07 0.065226816 -0.075755365 7.933171e-06 -0.03273846 3.464953e-38 -0.16849852
-0.17543574 -1.6176808e-33 0.040434595 0.055097464 -0.07331546 0.05116373 -0.08359516 -0.012967918
0.03155378 -1.4104064e-07 2.3383054e-17 -3.1356116e-37 0.0111718355 -4.7075743e-29 -2.0947218e-11 0.12819743
3.5139024e-07 -2.1636289e-10 -2.048362e-37 0.12911157 -0.021566639 1.599418e-07 -2.4316949e-34 7.6745853e-28
-0.10776603 0.22160932 -0.13518116 -0.04167464 0.010038942 0.051896133 0.17233332 0.22025944
0.014559644 0.1770032 -0.18004027 -0.12830886 -2.9145529e-06 -1.2961186e-37 -0.042945582 -0.24969955
-0.430272 0.10396028 0.18006837 0.04774214 9.240206e-09 -5.6348804e-06 0.023107912 -1.1855933e-05
-0.2123933 0.14293982 -9.195572e-21 -0.12436445 -0.02671533 0.1776745 0.14180699 6.6849848e-15
0.087467976 1.1064998e-11 0.20164505 -0.065235384 -0.09205832 -0.08875667 -1.6931301e-37 0.2287637
-0.00085505995 6.673252e-39 0.16246256 0.076095186 -0.26634774 -0.032356195 0.0898078 0.09797785
0.028457537 1.0630108e-23 5.655302e-38 -1.177846e-27 0.022007093 -1.5567205e-06 -3.0099037e-22 -0.019874595
-1.7156365e-18 6.81908e-40 1.6027637e-38 0.021985672 0.014971504 -1.4888928e-06 7.529846e-07 -2.8258207e-24
-0.020234216 0.06309648 0.012290974 -0.0058727837 0.021185687 0.024514938 0.0814093 0.047922492
0.053147256 -0.0009288632 -0.35208493 -0.25708348 -8.894213e-21 -7.29305e-09 -0.008308977 -0.26759306
0.054270424 -0.15557165 0.014780431 0.06328386 0.08507155 -2.0191404e-08 -0.0075007514 -0.15666066
-0.060556557 0.088931404 3.7423077e-38 0.1362663 0.059279907 0.16065595 0.043579552 -2.0193993e-05
0.18214817 -0.116148844 0.021705685 0.17364264 0.061554827 0.16331592 -0.09581177 -0.15309864
-0.036476284 0.029975323 -0.13847461 0.05035637 -0.05775556 0.10469253 -0.0737743 0.123420574
-0.36099446 -0.08184948 -0.012253984 0.062488854 2.2628058e-29 9.995516e-21 -0.026339667 -4.2209848e-07
-0.26831356 0.033525582 -2.57939e-07 -0.11190345 -0.10413785 -0.07985712 -0.12031573 1.3739545e-37
0.07766796 6.042055e-11 0.042391405 0.08834987 -0.05395793 -0.035471376 4.7765467e-19 -0.14121498
-0.07580411 -3.1116901e-34 -0.05435261 0.0042365743 -0.10470568 0.041858204 -0.02862205 0.1937231
-0.071654 1.7489548e-37 1.190894e-10 1.1164124e-12 -0.053964313 -4.6662067e-06 -2.4500785e-34 0.019723328
4.171818e-07 -1.9083109e-05 3.610384e-39 0.15685675 -0.016921422 -2.2061036e-24 -6.4421805e-38 -5.9137838e-06
0.029778166 0.039189927 -0.064364344 0.08088074 0.09274934 -0.12128525 0.1672889 0.06459621
0.025862858 0.18417442 0.00022428873 -0.049728394 7.355707e-06 -1.065996e-05 0.033460893 -0.13791512

bias f4 [32]
00000000: 341f 26b2 b257 d0bd 6d89 773d c42c 63bd
00000010: 899a 8fbc ff2a 7b3a f8bb 0e3e 042a 25be
00000020: b146 bbbb a108 4abd 9c11 b987 169b 2f3d
00000030: ac0f 2a3e d1a9 f0bc 4ede 203e d56f efbc
00000040: 9547 32be 18be 093e 364f 0a3e e17d 343e
00000050: de60 8bbd bdc2 25be 688b 7a81 3800 8fbd
00000060: 92c3 553e f682 92bd 6454 84bb 5be7 393e
00000070: 3a77 1d3e 5936 94bb a377 283e 3515 303e
-9.6695665e-09 -0.101729766 0.060433794 -0.055462614 -0.017529743 0.0009581297 0.13938892 -0.16129309
-0.005715214 -0.049324635 -2.7846056e-34 0.04287251 0.16607541 -0.02937785 0.15709803 -0.02922813
-0.17410119 0.13451421 0.13506779 0.17626144 -0.06805585 -0.16187568 -4.6017767e-38 -0.069824636
0.20875385 -0.07153885 -0.0040383805 0.18154661 0.15377513 -0.0045230803 0.16451888 0.1719559

mask f4 [32, 32]
00000000: 0000 803f 0000 803f 0000 803f 0000 803f
00000010: 0000 803f 0000 803f 0000 803f 0000 803f
00000020: 0000 803f 0000 803f 0000 803f 0000 803f
00000030: 0000 803f 0000 803f 0000 803f 0000 803f
00000040: 0000 803f 0000 803f 0000 803f 0000 803f
00000050: 0000 803f 0000 803f 0000 803f 0000 803f
00000060: 0000 803f 0000 803f 0000 803f 0000 803f
00000070: 0000 803f 0000 803f 0000 803f 0000 803f
00000080: 0000 803f 0000 803f 0000 803f 0000 803f
00000090: 0000 803f 0000 803f 0000 803f 0000 803f
000000a0: 0000 803f 0000 803f 0000 803f 0000 803f
000000b0: 0000 803f 0000 803f 0000 803f 0000 803f
000000c0: 0000 803f 0000 803f 0000 803f 0000 803f
000000d0: 0000 803f 0000 803f 0000 803f 0000 803f
000000e0: 0000 803f 0000 803f 0000 803f 0000 803f
000000f0: 0000 803f 0000 803f 0000 803f 0000 803f
00000100: 0000 803f 0000 803f 0000 803f 0000 803f
00000110: 0000 803f 0000 803f 0000 803f 0000 803f
00000120: 0000 803f 0000 803f 0000 803f 0000 803f
00000130: 0000 803f 0000 803f 0000 803f 0000 803f
00000140: 0000 803f 0000 803f 0000 803f 0000 803f
00000150: 0000 803f 0000 803f 0000 803f 0000 803f
00000160: 0000 803f 0000 803f 0000 803f 0000 803f
00000170: 0000 803f 0000 803f 0000 803f 0000 803f
00000180: 0000 803f 0000 803f 0000 803f 0000 803f
00000190: 0000 803f 0000 803f 0000 803f 0000 803f
000001a0: 0000 803f 0000 803f 0000 803f 0000 803f
000001b0: 0000 803f 0000 803f 0000 803f 0000 803f
000001c0: 0000 803f 0000 803f 0000 803f 0000 803f
000001d0: 0000 803f 0000 803f 0000 803f 0000 803f
000001e0: 0000 803f 0000 803f 0000 803f 0000 803f
000001f0: 0000 803f 0000 803f 0000 803f 0000 803f
00000200: 0000 803f 0000 803f 0000 803f 0000 803f
00000210: 0000 803f 0000 803f 0000 803f 0000 803f
00000220: 0000 803f 0000 803f 0000 803f 0000 803f
00000230: 0000 803f 0000 803f 0000 803f 0000 803f
00000240: 0000 803f 0000 803f 0000 803f 0000 803f
00000250: 0000 803f 0000 803f 0000 803f 0000 803f
00000260: 0000 803f 0000 803f 0000 803f 0000 803f
00000270: 0000 803f 0000 803f 0000 803f 0000 803f
00000280: 0000 803f 0000 803f 0000 803f 0000 803f
00000290: 0000 803f 0000 803f 0000 803f 0000 803f
000002a0: 0000 803f 0000 803f 0000 803f 0000 803f
000002b0: 0000 803f 0000 803f 0000 803f 0000 803f
000002c0: 0000 803f 0000 803f 0000 803f 0000 803f
000002d0: 0000 803f 0000 803f 0000 803f 0000 803f
000002e0: 0000 803f 0000 803f 0000 803f 0000 803f
000002f0: 0000 803f 0000 803f 0000 803f 0000 803f
00000300: 0000 803f 0000 803f 0000 803f 0000 803f
00000310: 0000 803f 0000 803f 0000 803f 0000 803f
00000320: 0000 803f 0000 803f 0000 803f 0000 803f
00000330: 0000 803f 0000 803f 0000 803f 0000 803f
00000340: 0000 803f 0000 803f 0000 803f 0000 803f
00000350: 0000 803f 0000 803f 0000 803f 0000 803f
00000360: 0000 803f 0000 803f 0000 803f 0000 803f
00000370: 0000 803f 0000 803f 0000 803f 0000 803f
00000380: 0000 803f 0000 803f 0000 803f 0000 803f
00000390: 0000 803f 0000 803f 0000 803f 0000 803f
000003a0: 0000 803f 0000 803f 0000 803f 0000 803f
000003b0: 0000 803f 0000 803f 0000 803f 0000 803f
000003c0: 0000 803f 0000 803f 0000 803f 0000 803f
000003d0: 0000 803f 0000 803f 0000 803f 0000 803f
000003e0: 0000 803f 0000 803f 0000 803f 0000 803f
000003f0: 0000 803f 0000 803f 0000 803f 0000 803f
1.0 1.0 1.0 1.0 1.0 1.0 1.0 1.0
1.0 1.0 1.0 1.0 1.0 1.0 1.0 1.0
1.0 1.0 1.0 1.0 1.0 1.0 1.0 1.0
1.0 1.0 1.0 1.0 1.0 1.0 1.0 1.0
1.0 1.0 1.0 1.0 1.0 1.0 1.0 1.0
1.0 1.0 1.0 1.0 1.0 1.0 1.0 1.0
1.0 1.0 1.0 1.0 1.0 1.0 1.0 1.0
1.0 1.0 1.0 1.0 1.0 1.0 1.0 1.0
1.0 1.0 1.0 1.0 1.0 1.0 1.0 1.0
1.0 1.0 1.0 1.0 1.0 1.0 1.0 1.0
1.0 1.0 1.0 1.0 1.0 1.0 1.0 1.0
1.0 1.0 1.0 1.0 1.0 1.0 1.0 1.0
1.0 1.0 1.0 1.0 1.0 1.0 1.0 1.0
1.0 1.0 1.0 1.0 1.0 1.0 1.0 1.0
1.0 1.0 1.0 1.0 1.0 1.0 1.0 1.0
1.0 1.0 1.0 1.0 1.0 1.0 1.0 1.0
1.0 1.0 1.0 1.0 1.0 1.0 1.0 1.0
1.0 1.0 1.0 1.0 1.0 1.0 1.0 1.0
1.0 1.0 1.0 1.0 1.0 1.0 1.0 1.0
1.0 1.0 1.0 1.0 1.0 1.0 1.0 1.0
1.0 1.0 1.0 1.0 1.0 1.0 1.0 1.0
1.0 1.0 1.0 1.0 1.0 1.0 1.0 1.0
1.0 1.0 1.0 1.0 1.0 1.0 1.0 1.0
1.0 1.0 1.0 1.0 1.0 1.0 1.0 1.0
1.0 1.0 1.0 1.0 1.0 1.0 1.0 1.0
1.0 1.0 1.0 1.0 1.0 1.0 1.0 1.0
1.0 1.0 1.0 1.0 1.0 1.0 1.0 1.0
1.0 1.0 1.0 1.0 1.0 1.0 1.0 1.0
1.0 1.0 1.0 1.0 1.0 1.0 1.0 1.0
1.0 1.0 1.0 1.0 1.0 1.0 1.0 1.0
1.0 1.0 1.0 1.0 1.0 1.0 1.0 1.0
1.0 1.0 1.0 1.0 1.0 1.0 1.0 1.0

weight f4 [32, 32]
00000000: 1c2a 2a01 bd42 963d f78b 16bc 28ce 43bc
00000010: 7f7d 06bd a125 ca3b 48eb b3bd 32b6 033d
00000020: 6f26 99bd 93f7 e13b 66f1 8f82 c7d9 b7bd
00000030: 97f3 ad3c d971 41bd caaa 2d3d adcf 263c
00000040: c34d 143d 488a 3bbd 0f84 283d e269 173d
00000050: 2dfc a53c b769 673d aaa8 3f02 14fb 973b
00000060: 23bf 423d 7d1f 2dbd 5519 88be a687 84bd
00000070: 9ae2 00be bf83 eb39 907e 3f3d 11f9 013c
00000080: b251 8702 3639 03bc 071e 183d c3de d33c
00000090: e597 133d 4ae4 243b 2fdc 193d 9936 d6bc
000000a0: aa86 db3c a635 bfbb 08b9 6c80 fb60 3d3d
000000b0: 4101 04bd 925a 073d beb7 34bd 67d1 273c
000000c0: 9fc3 cdbc 8b8d 8c3c 8807 0ebd 0d66 22bd
000000d0: 318a 0c3b 9bde 62bc 94b9 0a81 88ce 133c
000000e0: e5d7 68bd 4c55 1f3d bca4 063e a1e8 213d
000000f0: d4ef 813d 3df0 b8b7 42c9 5bbd 2a5f 03bd
00000100: ac02 4c02 b2f5 9c3c bbe3 383e b1b6 2b3d
00000110: 752a 103e 3542 24bc 079f 143d 06d7 5f3d
00000120: 6042 8e3b 5a39 60bb 0e4e 9c01 471e 4e3d
00000130: 067a 6fbd 63a5 323d 5bca 5bbd 515a 083e
00000140: 3112 9f3d e367 163c 2665 1abd 7734 3cbd
00000150: a303 f63d 6406 143c 9d19 0b02 8826 d53b
00000160: f466 adbd 311a 673d 6c08 1b3e 431e 433d
00000170: 1482 7d3d 0452 0c26 c8d9 acbd 07ce a2bd
00000180: 46e6 1b02 7297 1f3d bc39 b83d 855c 4d3d
00000190: d85d 203c f83f d7bb 24f0 373d 361c 3cbc
000001a0: 1a7c 97ba 5e76 43bb 0429 2801 05b8 873d
000001b0: d1c2 7ebd e2e2 743d 7f4c 7ebd a2bc 713d
000001c0: a580 383a 9455 263c 4a92 5cbd f00d 71bd
000001d0: 916f af3d 4efe d03c a12d 2182 60bd 263b
000001e0: a15f adbd 2b13 7c3d 4675 1c3e 4fbb 703d
000001f0: 191f 983d 2d21 3324 189a b0bd d43e aebd
00000200: 18e9 1382 ce90 c33d 19cb 28bc 1add c73c
00000210: 6263 0fbd a0e3 92bc 5a90 52bd 5e0f be3c
00000220: 3105 85bd 3821 ab3a 4a8e 5202 d94b 43bd
00000230: c6da 76bc 758f 64bc 1232 1a3c 536f 0a3b
00000240: b19c ce3c 70e6 0ebd 21cf 253c cf23 873b
00000250: edf5 063c 51a4 8e3d 92f1 4302 1fa4 6bbc
00000260: 0066 2d3c baf9 c8b8 1688 34be 09e4 aabc
00000270: 32a2 9cbd d819 ee39 4722 d93b 6514 fbbc
00000280: 0e7b b981 a66f 463d 8d41 e0bc b605 0c3a
00000290: c98a 39bd e86c ebbc ec6e 71bd 3a7f 52bc
000002a0: 856b 9fbd 5a56 9ebb 02d9 2202 7a04 65bd
000002b0: 82a5 d0bc d03e 0dbd cd10 65bc 4c6d cbbc
000002c0: 7f9e 4abc 0bd9 75bd 3195 57bc 2bac 98bc
000002d0: aba5 a5bc 3c1a 033d 8428 6081 4d1a e3bc
000002e0: 98e0 39bc b8b7 72bc a7a1 b5bd ef4c 11bd
000002f0: 9c07 8dbd 4881 153a 8e6d 89bc 6ce1 16bd
00000300: 409e 0780 c1b1 833c d8e9 f13d 476a 2d3d
00000310: a72a bc3d 94a2 16bc a9b1 2b3d 5dcf 833c
00000320: 7115 013c 16a5 84bb 461c 3902 939d 643d
00000330: 0ce4 47bd 027a 3e3d 5e26 3dbd 8586 a43d
00000340: 4c38 e73c 4bd8 2e3c bb71 1abd 07de 2bbd
00000350: a677 953d cc9b 313c 3c8b 7f82 2670 8d3b
00000360: 1946 8cbd 6ae8 623d 9d65 253e d244 533d
00000370: 269a 8d3d 38d5 87b2 2010 8dbd f68b 7dbd
00000380: 6462 8e82 5817 ba3d d4ea abba d518 b73c
00000390: d65b c4bc f502 66bc 403a 52bd ef3e a93c
000003a0: 9a17 83bd d59c f6ba 44bc 2682 b38b 3fbd
000003b0: bd60 14bc a4c9 59bc 7ff4 543c 0563 a03b
000003c0: da02 c93c 9756 10bd 1b35 493c 07f8 d83b
000003d0: 9ceb 2c3c 2f26 833d 61f6 7682 e94e 08bc
000003e0: dfe8 6b3c 44fb 1638 fe9c 2bbe 583b acbc
000003f0: c738 95bd 8303 143a 3bcc 2c3c faed c2bc
3.125428e-38 0.07336948 -0.009188644 -0.011951007 -0.032834526 0.0061690365 -0.08785111 0.032156177
-0.07478034 0.006895968 -2.1150517e-37 -0.089770846 0.021234317 -0.047227714 0.042399205 0.01018135
0.03620697 -0.045786172 0.041141566 0.036966212 0.020261848 0.056497302 1.4080868e-37 0.004638085
0.047545563 -0.042266358 -0.26581827 -0.064711854 -0.12586442 0.0004492085 0.04675156 0.007932917
1.9883358e-37 -0.008009246 0.03713801 0.025863057 0.03603353 0.0025160485 0.0375635 -0.026149081
0.026797611 -0.005835253 -9.98461e-39 0.046235066 -0.03222776 0.03304536 -0.044120543 0.0102427965
-0.025117693 0.017157337 -0.03467515 -0.039648104 0.0021444673 -0.013847019 -2.5479743e-38 0.009021409
-0.056846518 0.038899705 0.13148779 0.039528493 0.06344572 -2.2046379e-05 -0.05365873 -0.032073177
1.498832e-37 0.019160125 0.18055622 0.041922275 0.14078696 -0.010025551 0.036284473 0.05464842
0.0043414086 -0.0034213872 5.741735e-38 0.050321843 -0.05846598 0.043614756 -0.053659778 0.13315703
0.077671416 0.009180042 -0.03769412 -0.045948472 0.120124124 0.009034727 1.0219458e-37 0.0065048374
-0.084669024 0.056421462 0.15139931 0.04763628 0.06189163 4.868341e-16 -0.08439976 -0.07949453
1.1453687e-37 0.03896279 0.08995387 0.05013706 0.009787999 -0.006568905 0.04490675 -0.011481335
-0.0011557371 -0.002982519 3.0886154e-38 0.06626896 -0.06219751 0.059786685 -0.06208467 0.059017785
0.00070382125 0.010152239 -0.05385045 -0.058851182 0.085662015 0.025511887 -1.1841507e-37 0.0025442466
-0.084655054 0.061541717 0.15279111 0.05877238 0.074278064 3.884254e-17 -0.08623141 -0.08508077
-1.0866749e-37 0.09549104 -0.0103023285 0.024397422 -0.03500689 -0.017930806 -0.051407196 0.023200687
-0.06495131 0.0013056165 1.5469198e-37 -0.047679756 -0.015066808 -0.013950218 0.009411352 0.0021123483
0.0252212 -0.03488773 0.010120184 0.0041241418 0.008237344 0.069649346 1.4395665e-37 -0.014382391
0.010583401 -9.583258e-05 -0.17630038 -0.020860689 -0.07648124 0.00045414153 0.0066264006 -0.030649373
-6.813484e-38 0.04844632 -0.027375007 0.0005341427 -0.04529837 -0.028738454 -0.058943674 -0.012847716
-0.077841796 -0.0048320713 1.1964158e-37 -0.055912472 -0.025469545 -0.03448373 -0.013981056 -0.02483239
-0.01236689 -0.06002144 -0.013158129 -0.018636784 -0.020220598 0.03200744 -4.117137e-38 -0.027722502
-0.011345051 -0.01481431 -0.08868723 -0.03547376 -0.06886217 0.00057031633 -0.016775873 -0.036836073
-6.99618e-40 0.01607597 0.1181218 0.042337682 0.09187823 -0.009194035 0.041917477 0.01609009
0.007878647 -0.004048 1.3599768e-37 0.055814337 -0.048801467 0.046503074 -0.046179168 0.0803347
0.028225087 0.010671685 -0.037706118 -0.04195979 0.07298212 0.0108403675 -1.87744e-37 0.0043163477
-0.068493076 0.05539743 0.16152044 0.051579304 0.06914167 -1.5813029e-08 -0.06887841 -0.061901055
-2.0921498e-37 0.09086484 -0.0013116249 0.022350708 -0.023969572 -0.014038791 -0.051325083 0.020659892
-0.06400986 -0.001881505 -1.2249783e-37 -0.046764087 -0.009056267 -0.013292704 0.012997746 0.0048946165
0.024537493 -0.03523883 0.012280728 0.006621364 0.0105542205 0.06403767 -1.8143933e-37 -0.008319595
0.0143987825 3.5996796e-05 -0.16759107 -0.021024391 -0.0728622 0.0005646275 0.010546739 -0.023795117

bias f4 [32]
00000000: 3b1d a93b 0933 c0bc ae49 80bd ca1f 72bd
00000010: 9784 f6bc e1b9 10bd 8d7a 5ebd 54ec c5bc
00000020: 2151 7cbd e427 8abd f2aa 1dbd e4a9 6c3c
00000030: edd1 0b3d 87eb c03a 32e1 57bd b231 1abd
00000040: ea31 a93c 15d7 a3bc 8b18 0f3d 67b4 7e3d
00000050: 03c7 e13c 6bb2 5d3d 3678 43ba 4964 493d
00000060: 66ce 0b3d 030e d0bc 243f c93c a355 be3c
00000070: 150d 89bd ae63 6dbd 3e7e 163d 2b2d 053d
0.0051609552 -0.023461835 -0.06264053 -0.059112348 -0.03009252 -0.035333518 -0.054316092 -0.024160542
-0.061600808 -0.0674589 -0.038493104 0.014444802 0.034135748 0.001471863 -0.052704997 -0.03764505
0.020653684 -0.02000002 0.034935515 0.062183764 0.027560716 0.05412523 -0.00074565725 0.049167905
0.034132384 -0.025397306 0.02456624 0.023234194 -0.06691948 -0.05795639 0.036741488 0.03251378

mask f4 [32, 32]
00000000: 0000 803f 0000 803f 0000 803f 0000 803f
00000010: 0000 803f 0000 803f 0000 803f 0000 803f
00000020: 0000 803f 0000 803f 0000 803f 0000 803f
00000030: 0000 803f 0000 803f 0000 803f 0000 803f
00000040: 0000 803f 0000 803f 0000 803f 0000 803f
00000050: 0000 803f 0000 803f 0000 803f 0000 803f
00000060: 0000 803f 0000 803f 0000 803f 0000 803f
00000070: 0000 803f 0000 803f 0000 803f 0000 803f
00000080: 0000 803f 0000 803f 0000 803f 0000 803f
00000090: 0000 803f 0000 803f 0000 803f 0000 803f
000000a0: 0000 803f 0000 803f 0000 803f 0000 803f
000000b0: 0000 803f 0000 803f 0000 803f 0000 803f
000000c0: 0000 803f 0000 803f 0000 803f 0000 803f
000000d0: 0000 803f 0000 803f 0000 803f 0000 803f
000000e0: 0000 803f 0000 803f 0000 803f 0000 803f
000000f0: 0000 803f 0000 803f 0000 803f 0000 803f
00000100: 0000 803f 0000 803f 0000 803f 0000 803f
00000110: 0000 803f 0000 803f 0000 803f 0000 803f
00000120: 0000 803f 0000 803f 0000 803f 0000 803f
00000130: 0000 803f 0000 803f 0000 803f 0000 803f
00000140: 0000 803f 0000 803f 0000 803f 0000 803f
00000150: 0000 803f 0000 803f 0000 803f 0000 803f
00000160: 0000 803f 0000 803f 0000 803f 0000 803f
00000170: 0000 803f 0000 803f 0000 803f 0000 803f
00000180: 0000 803f 0000 803f 0000 803f 0000 803f
00000190: 0000 803f 0000 803f 0000 803f 0000 803f
000001a0: 0000 803f 0000 803f 0000 803f 0000 803f
000001b0: 0000 803f 0000 803f 0000 803f 0000 803f
000001c0: 0000 803f 0000 803f 0000 803f 0000 803f
000001d0: 0000 803f 0000 803f 0000 803f 0000 803f
000001e0: 0000 803f 0000 803f 0000 803f 0000 803f
000001f0: 0000 803f 0000 803f 0000 803f 0000 803f
00000200: 0000 803f 0000 803f 0000 803f 0000 803f
00000210: 0000 803f 0000 803f 0000 803f 0000 803f
00000220: 0000 803f 0000 803f 0000 803f 0000 803f
00000230: 0000 803f 0000 803f 0000 803f 0000 803f
00000240: 0000 803f 0000 803f 0000 803f 0000 803f
00000250: 0000 803f 0000 803f 0000 803f 0000 803f
00000260: 0000 803f 0000 803f 0000 803f 0000 803f
00000270: 0000 803f 0000 803f 0000 803f 0000 803f
00000280: 0000 803f 0000 803f 0000 803f 0000 803f
00000290: 0000 803f 0000 803f 0000 803f 0000 803f
000002a0: 0000 803f 0000 803f 0000 803f 0000 803f
000002b0: 0000 803f 0000 803f 0000 803f 0000 803f
000002c0: 0000 803f 0000 803f 0000 803f 0000 803f
000002d0: 0000 803f 0000 803f 0000 803f 0000 803f
000002e0: 0000 803f 0000 803f 0000 803f 0000 803f
000002f0: 0000 803f 0000 803f 0000 803f 0000 803f
00000300: 0000 803f 0000 803f 0000 803f 0000 803f
00000310: 0000 803f 0000 803f 0000 803f 0000 803f
00000320: 0000 803f 0000 803f 0000 803f 0000 803f
00000330: 0000 803f 0000 803f 0000 803f 0000 803f
00000340: 0000 803f 0000 803f 0000 803f 0000 803f
00000350: 0000 803f 0000 803f 0000 803f 0000 803f
00000360: 0000 803f 0000 803f 0000 803f 0000 803f
00000370: 0000 803f 0000 803f 0000 803f 0000 803f
00000380: 0000 803f 0000 803f 0000 803f 0000 803f
00000390: 0000 803f 0000 803f 0000 803f 0000 803f
000003a0: 0000 803f 0000 803f 0000 803f 0000 803f
000003b0: 0000 803f 0000 803f 0000 803f 0000 803f
000003c0: 0000 803f 0000 803f 0000 803f 0000 803f
000003d0: 0000 803f 0000 803f 0000 803f 0000 803f
000003e0: 0000 803f 0000 803f 0000 803f 0000 803f
000003f0: 0000 803f 0000 803f 0000 803f 0000 803f
1.0 1.0 1.0 1.0 1.0 1.0 1.0 1.0
1.0 1.0 1.0 1.0 1.0 1.0 1.0 1.0
1.0 1.0 1.0 1.0 1.0 1.0 1.0 1.0
1.0 1.0 1.0 1.0 1.0 1.0 1.0 1.0
1.0 1.0 1.0 1.0 1.0 1.0 1.0 1.0
1.0 1.0 1.0 1.0 1.0 1.0 1.0 1.0
1.0 1.0 1.0 1.0 1.0 1.0 1.0 1.0
1.0 1.0 1.0 1.0 1.0 1.0 1.0 1.0
1.0 1.0 1.0 1.0 1.0 1.0 1.0 1.0
1.0 1.0 1.0 1.0 1.0 1.0 1.0 1.0
1.0 1.0 1.0 1.0 1.0 1.0 1.0 1.0
1.0 1.0 1.0 1.0 1.0 1.0 1.0 1.0
1.0 1.0 1.0 1.0 1.0 1.0 1.0 1.0
1.0 1.0 1.0 1.0 1.0 1.0 1.0 1.0
1.0 1.0 1.0 1.0 1.0 1.0 1.0 1.0
1.0 1.0 1.0 1.0 1.0 1.0 1.0 1.0
1.0 1.0 1.0 1.0 1.0 1.0 1.0 1.0
1.0 1.0 1.0 1.0 1.0 1.0 1.0 1.0
1.0 1.0 1.0 1.0 1.0 1.0 1.0 1.0
1.0 1.0 1.0 1.0 1.0 1.0 1.0 1.0
1.0 1.0 1.0 1.0 1.0 1.0 1.0 1.0
1.0 1.0 1.0 1.0 1.0 1.0 1.0 1.0
1.0 1.0 1.0 1.0 1.0 1.0 1.0 1.0
1.0 1.0 1.0 1.0 1.0 1.0 1.0 1.0
1.0 1.0 1.0 1.0 1.0 1.0 1.0 1.0
1.0 1.0 1.0 1.0 1.0 1.0 1.0 1.0
1.0 1.0 1.0 1.0 1.0 1.0 1.0 1.0
1.0 1.0 1.0 1.0 1.0 1.0 1.0 1.0
1.0 1.0 1.0 1.0 1.0 1.0 1.0 1.0
1.0 1.0 1.0 1.0 1.0 1.0 1.0 1.0
1.0 1.0 1.0 1.0 1.0 1.0 1.0 1.0
1.0 1.0 1.0 1.0 1.0 1.0 1.0 1.0

weight f4 [32, 32]
00000000: 09cb a73d a9d9 f43d df5f 17bd 515a 013e
00000010: 5115 59bd fdb5 6682 9325 173e 5901 6bbd
00000020: 2d29 b0be 6e8e 19be 3055 5782 d2f6 2ebd
00000030: 086f 8d3d 933e 1e3e 9c10 1d3e 49e6 96b4
00000040: c05d b53d d5fa 183d 639a e8bb b4c6 f3bd
00000050: 4f11 44bd 8201 ecbd bf51 813d 7a85 c63d
00000060: f045 dabd 7165 9dbd 2661 0c3e 985a 06be
00000070: bd72 a2be c5b7 9b3c 85b7 7a3d b55c 3cbd
00000080: e0ea 98be 6354 49be 05d9 79bd f1a0 fabd
00000090: beef bc12 ef31 4236 5c2e 14be 1dc0 4786
000000a0: 9d98 a1a7 c084 fdbd e541 1882 5b6a 9fbc
000000b0: e22e 24bc 48c9 f9bd 1bec e7bd 518f d3b2
000000c0: 1298 283d 8910 6cbd b062 bb3d a57b 8b3d
000000d0: 2848 82bc 2b80 723d e384 2dbe af0e a53c
000000e0: 529a 373a 6bdb f0bb 76b4 2f3d cc7c 7a3d
000000f0: 3b5c 1bb7 b0d0 febd 0aee 7abc f130 7c3d
00000100: 8e44 9cbc ca22 e03c 9df7 843d 2ada d6bd
00000110: c024 9abd 5344 7c35 bd16 2cbb 7d90 eb3d
00000120: 6cde 46be 5193 2bbe ad35 05b1 a8ac 013d
00000130: 902f fc3d 5486 fb3d 5658 e63c ace1 5c8c
00000140: 4772 b0bd 991a 45bd d62c 283e c65d a23d
00000150: cf95 b53d 1f6a c5bd bf85 b93d 16ff 5e3c
00000160: 94cf 40be 3689 cfbd d4e2 513c c0bc 343e
00000170: bb04 11be 2e41 363e 6bbc d13c b970 d63d
00000180: f9b3 f7bd e115 453d c441 7e3c 7c4e 32bd
00000190: 9f65 fbbd 71c3 4835 794c 08bd e604 79be
000001a0: 3f11 223e 9ee2 1f3e 71eb 2bb6 9ef3 bd3d
000001b0: 2f13 82bd 20bd 12be 0554 923d 8795 9737
000001c0: 4d75 373e 9d74 493d 3609 b73d 7408 073e
000001d0: 6f15 643c 3b43 31bb e74b a5bd 9a8d 2fbe
000001e0: db4b 8e3b 3e16 05bd b5be 513d fc62 8f3d
000001f0: f111 3b3e 71f0 b93d 8d45 2bbc d178 5c3d
00000200: deb1 7dbd f471 1fb8 908f 2582 25f0 9cb6
00000210: d408 f33d b507 0202 8044 4cb2 20ed b93d
00000220: 7703 cf87 6aa5 84a6 07af a4b7 3a24 9a3d
00000230: 6ca2 d43d 9546 113d 79d8 ba0e 19ae fd2d
00000240: e48d 96bd 5983 b4bd 6802 543d 594a 8c3d
00000250: 8265 303e 2f16 c43d bdf3 883d bbe6 273e
00000260: 8d11 a3bc 8db6 1f3d 1847 1fbe 7492 ecbd
00000270: 268c 0733 cf5a 3ea6 632d 143e dd7c 94bd
00000280: 1894 debe db39 b6bd 603a 803c 4868 aebd
00000290: c025 5d86 2be2 1c2d ef1c b1bd ca03 1d02
000002a0: fd24 abbe 22b9 50bc 306c 8682 9f40 47be
000002b0: 5f5c e0bd c893 ccbc b865 573c cc7f 6b80
000002c0: 735e 7ebd 6eaa 0102 3cf7 7cbd 3db6 843d
000002d0: 7f66 9a3d c90c 2e3d d276 35be 906c 823d
000002e0: ee95 c8bd 7964 f983 df1e 383e 6fc2 f63d
000002f0: f3cf 11be 665d 11be 4d6f 5bbd edfe 1f3e
00000300: 3ede 183e 4b5c 96bd f3fb 07be f08d d4bd
00000310: 1b51 a83d 64c6 ce09 1c22 f6bd edec 3d3c
00000320: a0d2 33be ab34 f43c c051 adb2 817f 043e
00000330: 80fc ad3d ade9 273e eae9 3c3e c8df 6e02
00000340: 0925 073e 2a0d 0d3e 8b97 133e 561f debb
00000350: 132c a0bc 30e7 ccbd 2de5 60bd 649c 01be
00000360: f83f 33be 2d39 e8bd a67c 3d3e 4506 2a3e
00000370: e6d0 9fbe df59 3d3e 8a61 513d 5422 cdbd
00000380: 00ae 8cbe 87a7 a83d d9d4 aabd 2ff6 b8bc
00000390: e94b fc3d 400f 3c00 a4da 12be 7b25 503d
000003a0: a985 83bd b03f 963c a314 ed36 0429 e0bb
000003b0: bb05 803d 7c69 5cbd c936 56bc d1fa bb37
000003c0: 0bce c6bc 8136 793d 5094 313e 3ede cd3d
000003d0: 77e0 28be 6b99 413e 2d94 5bbe 9278 3abe
000003e0: eed0 1fbd 5dcf c63d 0117 df3d 9e5c 3d3e
000003f0: dd61 4bbe 5250 373d b4a9 11be 5a4d fd3d
0.08193023 0.11955578 -0.036956664 0.12632109 -0.052998845 -1.6949959e-37 0.14760427 -0.057374332
-0.34406415 -0.14995739 -1.5820153e-37 -0.042715855 0.06905943 0.15453558 0.15338367 -2.8107232e-07
0.08855772 0.037348587 -0.0070984825 -0.11903134 -0.04786807 -0.11523725 0.0631442 0.096934274
-0.10657871 -0.07685364 0.13708934 -0.13120496 -0.31728163 0.019008527 0.061210174 -0.04598685
-0.29866695 -0.19661097 -0.06099798 -0.122377284 1.1923569e-27 2.8937318e-06 -0.1447081 -3.7568883e-35
-4.485194e-15 -0.12378836 -1.1186107e-37 -0.019459894 -0.010020943 -0.121965945 -0.113243304 -2.4628806e-08
0.04116065 -0.057632957 0.091496825 0.06810693 -0.015903547 0.05920426 -0.16945224 0.020148603
0.00070038915 -0.0073503754 0.04289671 0.06115417 -9.260194e-06 -0.12442148 -0.015315542 0.06157011
-0.019075658 0.027360339 0.06492541 -0.1049083 -0.07526541 9.397674e-07 -0.002625867 0.11502168
-0.19420785 -0.16755415 -1.9384558e-09 0.0316588 0.12313759 0.122814804 0.028118294 -1.7016094e-31
-0.08615547 -0.04812107 0.16423354 0.07928042 0.08866464 -0.096393816 0.09058713 0.013610622
-0.18829185 -0.10133593 0.012810428 0.17650127 -0.14161961 0.17798302 0.02560254 0.10470719
-0.12094874 0.04811657 0.015518609 -0.04353188 -0.12275242 7.479021e-07 -0.033276055 -0.24318275
0.15826891 0.15613791 -2.561803e-06 0.09274982 -0.06351315 -0.14329958 0.07144932 1.8070232e-05
0.1791584 0.049183477 0.08937304 0.13186818 0.013921126 -0.002704813 -0.08071118 -0.1714386
0.004342539 -0.032491915 0.051207263 0.07001302 0.18268563 0.09079064 -0.010453594 0.053826157
-0.061937205 -3.801468e-05 -1.2163486e-37 -4.677119e-06 0.11866918 9.553103e-38 -1.1889938e-08 0.09078431
-3.1147935e-34 -9.204176e-16 -1.9631827e-05 0.07526441 0.10382542 0.035467703 4.6060996e-30 2.8840085e-11
-0.07351282 -0.08814115 0.051760107 0.06850118 0.17226222 0.09574544 0.066871144 0.1639661
-0.01990583 0.038992453 -0.15554464 -0.11551371 3.15596e-08 -6.604256e-16 0.14470439 -0.07250378
-0.43472362 -0.08897754 0.015652835 -0.08515984 -4.1593215e-35 8.917793e-12 -0.08648097 1.1535626e-37
-0.33426657 -0.012739452 -1.9751627e-37 -0.19458245 -0.109551184 -0.024972811 0.01314681 -9.872243e-39
-0.062101793 9.526334e-38 -0.06175922 0.06480072 0.07539081 0.04249266 -0.17721108 0.06368363
-0.09794222 -1.4657972e-36 0.17980526 0.12048804 -0.14239483 -0.14195785 -0.05357294 0.1562459
0.14928529 -0.07341822 -0.13279705 -0.10378635 0.08218595 4.977926e-33 -0.120182246 0.011592132
-0.17560816 0.02981027 -2.0177026e-08 0.12939264 0.08495426 0.16397734 0.18448606 1.75497e-37
0.13197722 0.13774553 0.14413278 -0.006778638 -0.019552266 -0.10005033 -0.05490606 -0.12657315
-0.17504871 -0.113390304 0.18504581 0.16603954 -0.31214064 0.18491314 0.05111841 -0.10016313
-0.274765 0.08235078 -0.08341379 -0.022578327 0.12319166 5.5156e-39 -0.14341217 0.050816994
-0.06421978 0.018340915 7.065553e-06 -0.006840827 0.06251093 -0.053811535 -0.013074585 2.2408933e-05
-0.02426817 0.060842995 0.17341733 0.10052155 -0.16491877 0.1890618 -0.21443243 -0.18210056
-0.03901761 0.0970752 0.108930595 0.18492362 -0.1986155 0.044754334 -0.14224893 0.12368269

bias f4 [32]
00000000: b63d 113e 4434 643d e2f1 adbd 8b2d d43d
00000010: 4ab5 7abd f552 093e a302 7abc 0bf9 24bd
00000020: 17d4 9f3c 97b4 e0bd 318d a33c 32b7 203e
00000030: 9cc1 42bd 94c1 573e 4410 8dbd 89af 7c3d
00000040: ebef 10be 805e 9b3d 45af bb3d 8d7d 553b
00000050: 5005 bf3d 9e95 113d f7b4 ed3d b9c0 363e
00000060: f4cd 493e 6a6a 31bb aeca 4abd 95f7 3b3e
00000070: a3f2 e1bb b03b 8d3d cd97 aa3d 4fff 003e
0.14183697 0.055713907 -0.08493401 0.10360249 -0.061208047 0.13410552 -0.015259418 -0.04027657
0.019510312 -0.10971945 0.019964786 0.15694883 -0.04754792 0.21069938 -0.06887868 0.06169084
-0.14154021 0.07586384 0.091642894 0.0032576055 0.09327185 0.035543077 0.11606782 0.17846955
0.19707471 -0.0027071484 -0.049509697 0.18356164 -0.0068953796 0.0689615 0.08329735 0.12597392

mask f4 [32, 32]
00000000: 0000 803f 0000 803f 0000 803f 0000 803f
00000010: 0000 803f 0000 803f 0000 803f 0000 803f
00000020: 0000 803f 0000 803f 0000 803f 0000 803f
00000030: 0000 803f 0000 803f 0000 803f 0000 803f
00000040: 0000 803f 0000 803f 0000 803f 0000 803f
00000050: 0000 803f 0000 803f 0000 803f 0000 803f
00000060: 0000 803f 0000 803f 0000 803f 0000 803f
00000070: 0000 803f 0000 803f 0000 803f 0000 803f
00000080: 0000 803f 0000 803f 0000 803f 0000 803f
00000090: 0000 803f 0000 803f 0000 803f 0000 803f
000000a0: 0000 803f 0000 803f 0000 803f 0000 803f
000000b0: 0000 803f 0000 803f 0000 803f 0000 803f
000000c0: 0000 803f 0000 803f 0000 803f 0000 803f
000000d0: 0000 803f 0000 803f 0000 803f 0000 803f
000000e0: 0000 803f 0000 803f 0000 803f 0000 803f
000000f0: 0000 803f 0000 803f 0000 803f 0000 803f
00000100: 0000 803f 0000 803f 0000 803f 0000 803f
00000110: 0000 803f 0000 803f 0000 803f 0000 803f
00000120: 0000 803f 0000 803f 0000 803f 0000 803f
00000130: 0000 803f 0000 803f 0000 803f 0000 803f
00000140: 0000 803f 0000 803f 0000 803f 0000 803f
00000150: 0000 803f 0000 803f 0000 803f 0000 803f
00000160: 0000 803f 0000 803f 0000 803f 0000 803f
00000170: 0000 803f 0000 803f 0000 803f 0000 803f
00000180: 0000 803f 0000 803f 0000 803f 0000 803f
00000190: 0000 803f 0000 803f 0000 803f 0000 803f
000001a0: 0000 803f 0000 803f 0000 803f 0000 803f
000001b0: 0000 803f 0000 803f 0000 803f 0000 803f
000001c0: 0000 803f 0000 803f 0000 803f 0000 803f
000001d0: 0000 803f 0000 803f 0000 803f 0000 803f
000001e0: 0000 803f 0000 803f 0000 803f 0000 803f
000001f0: 0000 803f 0000 803f 0000 803f 0000 803f
00000200: 0000 803f 0000 803f 0000 803f 0000 803f
00000210: 0000 803f 0000 803f 0000 803f 0000 803f
00000220: 0000 803f 0000 803f 0000 803f 0000 803f
00000230: 0000 803f 0000 803f 0000 803f 0000 803f
00000240: 0000 803f 0000 803f 0000 803f 0000 803f
00000250: 0000 803f 0000 803f 0000 803f 0000 803f
00000260: 0000 803f 0000 803f 0000 803f 0000 803f
00000270: 0000 803f 0000 803f 0000 803f 0000 803f
00000280: 0000 803f 0000 803f 0000 803f 0000 803f
00000290: 0000 803f 0000 803f 0000 803f 0000 803f
000002a0: 0000 803f 0000 803f 0000 803f 0000 803f
000002b0: 0000 803f 0000 803f 0000 803f 0000 803f
000002c0: 0000 803f 0000 803f 0000 803f 0000 803f
000002d0: 0000 803f 0000 803f 0000 803f 0000 803f
000002e0: 0000 803f 0000 803f 0000 803f 0000 803f
000002f0: 0000 803f 0000 803f 0000 803f 0000 803f
00000300: 0000 803f 0000 803f 0000 803f 0000 803f
00000310: 0000 803f 0000 803f 0000 803f 0000 803f
00000320: 0000 803f 0000 803f 0000 803f 0000 803f
00000330: 0000 803f 0000 803f 0000 803f 0000 803f
00000340: 0000 803f 0000 803f 0000 803f 0000 803f
00000350: 0000 803f 0000 803f 0000 803f 0000 803f
00000360: 0000 803f 0000 803f 0000 803f 0000 803f
00000370: 0000 803f 0000 803f 0000 803f 0000 803f
00000380: 0000 803f 0000 803f 0000 803f 0000 803f
00000390: 0000 803f 0000 803f 0000 803f 0000 803f
000003a0: 0000 803f 0000 803f 0000 803f 0000 803f
000003b0: 0000 803f 0000 803f 0000 803f 0000 803f
000003c0: 0000 803f 0000 803f 0000 803f 0000 803f
000003d0: 0000 803f 0000 803f 0000 803f 0000 803f
000003e0: 0000 803f 0000 803f 0000 803f 0000 803f
000003f0: 0000 803f 0000 803f 0000 803f 0000 803f
1.0 1.0 1.0 1.0 1.0 1.0 1.0 1.0
1.0 1.0 1.0 1.0 1.0 1.0 1.0 1.0
1.0 1.0 1.0 1.0 1.0 1.0 1.0 1.0
1.0 1.0 1.0 1.0 1.0 1.0 1.0 1.0
1.0 1.0 1.0 1.0 1.0 1.0 1.0 1.0
1.0 1.0 1.0 1.0 1.0 1.0 1.0 1.0
1.0 1.0 1.0 1.0 1.0 1.0 1.0 1.0
1.0 1.0 1.0 1.0 1.0 1.0 1.0 1.0
1.0 1.0 1.0 1.0 1.0 1.0 1.0 1.0
1.0 1.0 1.0 1.0 1.0 1.0 1.0 1.0
1.0 1.0 1.0 1.0 1.0 1.0 1.0 1.0
1.0 1.0 1.0 1.0 1.0 1.0 1.0 1.0
1.0 1.0 1.0 1.0 1.0 1.0 1.0 1.0
1.0 1.0 1.0 1.0 1.0 1.0 1.0 1.0
1.0 1.0 1.0 1.0 1.0 1.0 1.0 1.0
1.0 1.0 1.0 1.0 1.0 1.0 1.0 1.0
1.0 1.0 1.0 1.0 1.0 1.0 1.0 1.0
1.0 1.0 1.0 1.0 1.0 1.0 1.0 1.0
1.0 1.0 1.0 1.0 1.0 1.0 1.0 1.0
1.0 1.0 1.0 1.0 1.0 1.0 1.0 1.0
1.0 1.0 1.0 1.0 1.0 1.0 1.0 1.0
1.0 1.0 1.0 1.0 1.0 1.0 1.0 1.0
1.0 1.0 1.0 1.0 1.0 1.0 1.0 1.0
1.0 1.0 1.0 1.0 1.0 1.0 1.0 1.0
1.0 1.0 1.0 1.0 1.0 1.0 1.0 1.0
1.0 1.0 1.0 1.0 1.0 1.0 1.0 1.0
1.0 1.0 1.0 1.0 1.0 1.0 1.0 1.0
1.0 1.0 1.0 1.0 1.0 1.0 1.0 1.0
1.0 1.0 1.0 1.0 1.0 1.0 1.0 1.0
1.0 1.0 1.0 1.0 1.0 1.0 1.0 1.0
1.0 1.0 1.0 1.0 1.0 1.0 1.0 1.0
1.0 1.0 1.0 1.0 1.0 1.0 1.0 1.0

weight f4 [32, 32]
00000000: 2619 493c 1e6d 42be 5d08 a53a 4dab d7bc
00000010: 1393 c73c a8a9 b8bd 0898 d63b bcf3 4abd
00000020: e704 5d3d 079d bc3c 646d cc3c 1c10 86bd
00000030: 7ce4 113d 50cb 9dbd 155d a23c a3c9 ec3c
00000040: 4e1c 913c c5c0 3e3d 7850 513d a755 003c
00000050: 47ac 01bd 8563 223e f66c 5dbc d185 27bd
00000060: 6597 f2bb 4a09 83a6 9b28 eb39 3793 57bc
00000070: a6a8 5a3a 9c3c 2fbd 38e0 013d 5989 51bd
00000080: 8c1e 083d 6839 583d 35ae 603c a67f e0bb
00000090: 8dac dfbc 568d 8d3d b80d f23c 32b3 da3c
000000a0: 0ef0 cb3a 03d9 18bd 93e0 4dbd 671c ba3c
000000b0: 4231 81bd 8931 e73b 66f3 e1bc 4504 57bd
000000c0: ba0f d3bd 0aa3 a0bd 1173 b2bd 486b 0939
000000d0: 38e9 333c 73d2 16be 4839 6d3c 8b2c 553d
000000e0: 4aab 01bc 62fc 8ba5 61d9 ceb9 a891 4cbc
000000f0: 5b1d fa3c 4e3b 6b3d 8724 01bd 1cf7 223d
00000100: 4c17 3c3d 1b5f f1bc 9815 b63c 68e7 d1bc
00000110: 5f4a 77bc 3e04 a83d b4e8 663d 6f6f cf3c
00000120: e7b1 5e3b 4709 3fbd e601 9ebd af6b 1a3c
00000130: 629f b1bd a2da 5abc 3ac9 e1bc 01d0 85bd
00000140: d5d9 5fbd b4d6 abbd 9243 17be 7fad de3d
00000150: 1ad5 12bb 23a7 b9bd a80f a93c 243b 8a3d
00000160: 3238 80bc ebff 35b3 1f98 d2b9 ffff 0fbd
00000170: 1c44 293e 6a5d 8a3d b79d 7f3d 412e 413d
00000180: 429e b33c f2a5 4fbd 7b4d 963b 107c 3abd
00000190: 1aae 07bd dfef 743d 28d6 133d 2f3e 443b
000001a0: 44b6 203c 6fe6 80bd 835e c6bd aacc a8bc
000001b0: f40a c9bd c934 23bd ea59 4ebd 3fa9 abbd
000001c0: 0f2b 21be d10d f5bd 659f 27be 597e 9f3c
000001d0: e4ca d0bc ad46 cabd 40e3 bbba 8aed 5d3d
000001e0: 17a7 26bd 158f bab2 0735 2fba 475b 57bd
000001f0: e23e 103e f2a7 3b3d 4d10 47bc 1911 e93c
00000200: e573 f43c ff74 47be 724a 3a3b d930 22bd
00000210: 98c3 5c3c d286 b1bd dac4 5b3c e4e3 72bd
00000220: 1b5a 983d 96cd 193c 72c2 f03b a73a 9dbd
00000230: 4cad 7f3c 4c29 c1bd 4592 f53b 1d56 0a3c
00000240: 86cd 91bc 0f7b e63c 05d3 d73c a2e9 913a
00000250: e825 11bd 0bdf d23d 4355 9fbc 3eb6 05bd
00000260: 9020 86bc e277 04a7 1808 9d37 b783 c1bc
00000270: 927e dab9 15d3 eebc cdbb af3c 065c 59bd
00000280: 33d8 b63b 8b18 19be 7825 82bc 6d5c 69bd
00000290: dbad edbb 704f 96bd 84e3 9bbc 0f93 98bd
000002a0: 9836 393d 8774 41bc 472e 6bbc b889 b5bd
000002b0: 8a56 a3bb aa5b b7bd dfd6 43bc 8c5c 84bc
000002c0: 4a42 a5bd 6988 10bc 2218 403b ba87 04bd
000002d0: 2549 3dbd 38a9 51bc 5188 05bd b941 26bd
000002e0: 9a07 f7bc 4e63 7aa5 b126 42ba c308 0dbd
000002f0: a473 82bc d3b5 09bd f6b7 40bc 4c43 79bd
00000300: cbcb 2a3d 030d 26bc e3d1 a53c 6fc8 a9bc
00000310: 5b25 acbc ba08 9f3d e1f0 463d c466 d23c
00000320: 2a4a 293b 6457 2fbd 2193 8abd 9fa4 443c
00000330: e4d8 a0bd 8fbe eebb 909b eabc ead0 80bd
00000340: 7992 febd b72c b9bd af73 00be b841 633d
00000350: e0d5 093a d93e d8bd 21c1 9b3c eb92 803d
00000360: 097d 69bc 6d98 c1b0 3620 cfb9 c9f8 e4bc
00000370: e796 e03d bedf 833d 8ea2 833c f6b3 333d
00000380: 5d57 e53c 460e 43be 460b ca3a c4df 27bd
00000390: 3696 3f3c dcbc aabd 4a95 4e3c e125 6dbd
000003a0: 6553 913d ab82 f73b d432 a13b e12f 9bbd
000003b0: 6174 493c 5390 bdbd d72b d83b f7b8 af3b
000003c0: 2999 9fbc d2c5 db3c 5862 bf3c f518 35ba
000003d0: 6611 14bd cc2f d03d 911e 9cbc 8abb 01bd
000003e0: 25dc 8abc f523 dea6 73b8 9937 8bb6 cebc
000003f0: 37b2 03b9 862b dfbc fe9d a93c 24ee 4dbd
0.012274062 -0.18986937 0.0012590993 -0.0263268 0.024362123 -0.09016734 0.0065488853 -0.04954885
0.053959753 0.023024095 0.024954505 -0.06546041 0.03561829 -0.077047944 0.019819776 0.028904742
0.017713692 0.046570558 0.05110213 0.007832921 -0.031658437 0.15858276 -0.013514748 -0.0408991
-0.0074033015 -9.092469e-16 0.00044852946 -0.013157657 0.00083411706 -0.04278241 0.031707972 -0.051156376
0.033232257 0.052789122 0.013713409 -0.0068511544 -0.027303958 0.06911723 0.029547557 0.026696775
0.0015559213 -0.037316334 -0.050263 0.022718621 -0.06308223 0.0070554656 -0.027581882 -0.052494306
-0.10305734 -0.07843597 -0.087133534 0.00013105304 0.010980897 -0.14728718 0.014478989 0.052044433
-0.007914374 -2.4283678e-16 -0.00039453342 -0.012485899 0.030531576 0.057429604 -0.031528976 0.039786443
0.045920655 -0.029464295 0.022227094 -0.025623038 -0.015093415 0.08203934 0.056374267 0.02532169
0.003398055 -0.046639707 -0.07715206 0.009425088 -0.08672978 -0.01335779 -0.027561773 -0.06533814
-0.0546511 -0.08390561 -0.1477187 0.108729355 -0.002240485 -0.09065082 0.020637348 0.067495614
-0.015651796 -4.2375103e-08 -0.0004016766 -0.035156246 0.16529888 0.067560986 0.062406268 0.04716325
0.02192605 -0.050695367 0.004586873 -0.04552847 -0.03312502 0.05979907 0.036092907 0.002994429
0.0098090805 -0.06293952 -0.096859954 -0.020605404 -0.09816542 -0.03984526 -0.050378717 -0.083818905
-0.15739082 -0.11965526 -0.16369398 0.019469427 -0.02548737 -0.098767616 -0.0014334694 0.054181613
-0.040686693 -2.1718316e-08 -0.0006683622 -0.052577283 0.14086488 0.045814462 -0.0121498825 0.028450536
0.02984042 -0.19478224 0.002842572 -0.039597366 0.013474368 -0.08668293 0.013413632 -0.059299365
0.07439061 0.009387394 0.0073473984 -0.07677203 0.015605282 -0.09431705 0.0074942433 0.008443383
-0.017798197 0.02813485 0.02634574 0.001113225 -0.03543654 0.10296448 -0.019449836 -0.032644503
-0.016372949 -1.8383669e-15 1.8719627e-05 -0.023622377 -0.00041674502 -0.029153386 0.021451855 -0.053066276
0.005579972 -0.14950769 -0.015887007 -0.05697291 -0.007253391 -0.0733937 -0.019029386 -0.07449924
0.04521808 -0.011807567 -0.014354295 -0.088641584 -0.0049846815 -0.089530304 -0.011953085 -0.016157411
-0.08069284 -0.008821585 0.002931126 -0.032356 -0.046212334 -0.012796693 -0.032600705 -0.04059002
-0.030154992 -2.1717689e-16 -0.0007406278 -0.034432184 -0.015924282 -0.033620667 -0.01176261 -0.060855195
0.04169826 -0.010134938 0.020241683 -0.020725457 -0.021013906 0.07765336 0.048569564 0.025683768
0.0025831559 -0.04280795 -0.06766344 0.012002139 -0.078538686 -0.0072859 -0.028638631 -0.06289847
-0.12430281 -0.09041732 -0.1254413 0.055482596 0.0005258005 -0.10558862 0.01901299 0.062780224
-0.014251002 -1.408592e-09 -0.00039506116 -0.027950661 0.10966282 0.0643916 0.016068723 0.043872796
0.02799576 -0.19048414 0.0015414737 -0.040984884 0.011693528 -0.08336803 0.0126088355 -0.057897452
0.07095984 0.0075534186 0.0049193893 -0.075774916 0.012295813 -0.09256043 0.006597023 0.0053626257
-0.019482212 0.026827727 0.023362324 -0.0006908321 -0.036149405 0.101653665 -0.019057544 -0.03167299
-0.016950676 -1.5414091e-15 1.8324912e-05 -0.025233528 -0.00012559524 -0.027242433 0.02070522 -0.050275937

bias f4 [32]
00000000: f177 22bc 2ae8 03bd ceff 65bd b38a 91bd
00000010: 10e4 dabc a502 13bd f1dc 48bd 3242 d8bc
00000020: 0761 75bd a559 93bd 1d0d 20bd 6db4 cc3c
00000030: 49c0 0d3d d86c 07bc 236c 47bd 6a2b 1fbd
00000040: 0262 cc3c 8c7c c1bc 3709 073d 1aa5 5b3d
00000050: ab0d 063d af69 303d 1b73 a6bc 4dc4 643d
00000060: 4189 573d 7632 cabc e4a7 c03c cfcb dd3c
00000070: 6022 88bd 37e3 76bd 2eef 323d adbf ed3c
-0.009916292 -0.03220383 -0.056152157 -0.07106533 -0.026720077 -0.035891194 -0.04903883 -0.026398752
-0.059906986 -0.07194833 -0.039075006 0.024988377 0.034607206 -0.0082656965 -0.04868711 -0.038859762
0.024949078 -0.023618959 0.032967772 0.05362425 0.03272788 0.043069538 -0.020318558 0.05585127
0.05262113 -0.024682265 0.023517556 0.027074723 -0.066471815 -0.060275283 0.04368513 0.029022062

mask f4 [32, 32]
00000000: 0000 803f 0000 803f 0000 803f 0000 803f
00000010: 0000 803f 0000 803f 0000 803f 0000 803f
00000020: 0000 803f 0000 803f 0000 803f 0000 803f
00000030: 0000 803f 0000 803f 0000 803f 0000 803f
00000040: 0000 803f 0000 803f 0000 803f 0000 803f
00000050: 0000 803f 0000 803f 0000 803f 0000 803f
00000060: 0000 803f 0000 803f 0000 803f 0000 803f
00000070: 0000 803f 0000 803f 0000 803f 0000 803f
00000080: 0000 803f 0000 803f 0000 803f 0000 803f
00000090: 0000 803f 0000 803f 0000 803f 0000 803f
000000a0: 0000 803f 0000 803f 0000 803f 0000 803f
000000b0: 0000 803f 0000 803f 0000 803f 0000 803f
000000c0: 0000 803f 0000 803f 0000 803f 0000 803f
000000d0: 0000 803f 0000 803f 0000 803f 0000 803f
000000e0: 0000 803f 0000 803f 0000 803f 0000 803f
000000f0: 0000 803f 0000 803f 0000 803f 0000 803f
00000100: 0000 803f 0000 803f 0000 803f 0000 803f
00000110: 0000 803f 0000 803f 0000 803f 0000 803f
00000120: 0000 803f 0000 803f 0000 803f 0000 803f
00000130: 0000 803f 0000 803f 0000 803f 0000 803f
00000140: 0000 803f 0000 803f 0000 803f 0000 803f
00000150: 0000 803f 0000 803f 0000 803f 0000 803f
00000160: 0000 803f 0000 803f 0000 803f 0000 803f
00000170: 0000 803f 0000 803f 0000 803f 0000 803f
00000180: 0000 803f 0000 803f 0000 803f 0000 803f
00000190: 0000 803f 0000 803f 0000 803f 0000 803f
000001a0: 0000 803f 0000 803f 0000 803f 0000 803f
000001b0: 0000 803f 0000 803f 0000 803f 0000 803f
000001c0: 0000 803f 0000 803f 0000 803f 0000 803f
000001d0: 0000 803f 0000 803f 0000 803f 0000 803f
000001e0: 0000 803f 0000 803f 0000 803f 0000 803f
000001f0: 0000 803f 0000 803f 0000 803f 0000 803f
00000200: 0000 803f 0000 803f 0000 803f 0000 803f
00000210: 0000 803f 0000 803f 0000 803f 0000 803f
00000220: 0000 803f 0000 803f 0000 803f 0000 803f
00000230: 0000 803f 0000 803f 0000 803f 0000 803f
00000240: 0000 803f 0000 803f 0000 803f 0000 803f
00000250: 0000 803f 0000 803f 0000 803f 0000 803f
00000260: 0000 803f 0000 803f 0000 803f 0000 803f
00000270: 0000 803f 0000 803f 0000 803f 0000 803f
00000280: 0000 803f 0000 803f 0000 803f 0000 803f
00000290: 0000 803f 0000 803f 0000 803f 0000 803f
000002a0: 0000 803f 0000 803f 0000 803f 0000 803f
000002b0: 0000 803f 0000 803f 0000 803f 0000 803f
000002c0: 0000 803f 0000 803f 0000 803f 0000 803f
000002d0: 0000 803f 0000 803f 0000 803f 0000 803f
000002e0: 0000 803f 0000 803f 0000 803f 0000 803f
000002f0: 0000 803f 0000 803f 0000 803f 0000 803f
00000300: 0000 803f 0000 803f 0000 803f 0000 803f
00000310: 0000 803f 0000 803f 0000 803f 0000 803f
00000320: 0000 803f 0000 803f 0000 803f 0000 803f
00000330: 0000 803f 0000 803f 0000 803f 0000 803f
00000340: 0000 803f 0000 803f 0000 803f 0000 803f
00000350: 0000 803f 0000 803f 0000 803f 0000 803f
00000360: 0000 803f 0000 803f 0000 803f 0000 803f
00000370: 0000 803f 0000 803f 0000 803f 0000 803f
00000380: 0000 803f 0000 803f 0000 803f 0000 803f
00000390: 0000 803f 0000 803f 0000 803f 0000 803f
000003a0: 0000 803f 0000 803f 0000 803f 0000 803f
000003b0: 0000 803f 0000 803f 0000 803f 0000 803f
000003c0: 0000 803f 0000 803f 0000 803f 0000 803f
000003d0: 0000 803f 0000 803f 0000 803f 0000 803f
000003e0: 0000 803f 0000 803f 0000 803f 0000 803f
000003f0: 0000 803f 0000 803f 0000 803f 0000 803f
1.0 1.0 1.0 1.0 1.0 1.0 1.0 1.0
1.0 1.0 1.0 1.0 1.0 1.0 1.0 1.0
1.0 1.0 1.0 1.0 1.0 1.0 1.0 1.0
1.0 1.0 1.0 1.0 1.0 1.0 1.0 1.0
1.0 1.0 1.0 1.0 1.0 1.0 1.0 1.0
1.0 1.0 1.0 1.0 1.0 1.0 1.0 1.0
1.0 1.0 1.0 1.0 1.0 1.0 1.0 1.0
1.0 1.0 1.0 1.0 1.0 1.0 1.0 1.0
1.0 1.0 1.0 1.0 1.0 1.0 1.0 1.0
1.0 1.0 1.0 1.0 1.0 1.0 1.0 1.0
1.0 1.0 1.0 1.0 1.0 1.0 1.0 1.0
1.0 1.0 1.0 1.0 1.0 1.0 1.0 1.0
1.0 1.0 1.0 1.0 1.0 1.0 1.0 1.0
1.0 1.0 1.0 1.0 1.0 1.0 1.0 1.0
1.0 1.0 1.0 1.0 1.0 1.0 1.0 1.0
1.0 1.0 1.0 1.0 1.0 1.0 1.0 1.0
1.0 1.0 1.0 1.0 1.0 1.0 1.0 1.0
1.0 1.0 1.0 1.0 1.0 1.0 1.0 1.0
1.0 1.0 1.0 1.0 1.0 1.0 1.0 1.0
1.0 1.0 1.0 1.0 1.0 1.0 1.0 1.0
1.0 1.0 1.0 1.0 1.0 1.0 1.0 1.0
1.0 1.0 1.0 1.0 1.0 1.0 1.0 1.0
1.0 1.0 1.0 1.0 1.0 1.0 1.0 1.0
1.0 1.0 1.0 1.0 1.0 1.0 1.0 1.0
1.0 1.0 1.0 1.0 1.0 1.0 1.0 1.0
1.0 1.0 1.0 1.0 1.0 1.0 1.0 1.0
1.0 1.0 1.0 1.0 1.0 1.0 1.0 1.0
1.0 1.0 1.0 1.0 1.0 1.0 1.0 1.0
1.0 1.0 1.0 1.0 1.0 1.0 1.0 1.0
1.0 1.0 1.0 1.0 1.0 1.0 1.0 1.0
1.0 1.0 1.0 1.0 1.0 1.0 1.0 1.0
1.0 1.0 1.0 1.0 1.0 1.0 1.0 1.0
